saved_models/stats_only_mlp_run_20250401_120113/stats_only_mlp_run_20250401_120113_best_model.pth (torch, 148302 bytes, 24 tensors)

mlp.0.weight f4 [21]
1.0829604 1.0939747 1.0930889 1.0827163 1.0208873 1.0367941 1.0206636 1.0114547
1.2142984 1.1166158 1.0471584 0.93178207 1.0659472 1.0383819 1.0692487 1.0634676
1.032847 1.0073189 1.066764 1.0266073 1.0706996
00000000: 729e 8a3f 5d07 8c3f 56ea 8b3f 7396 8a3f
00000010: 6fac 823f abb5 843f 1ba5 823f 5977 813f
00000020: 216e 9b3f 44ed 8e3f 4909 863f 4589 6e3f
00000030: f570 883f b3e9 843f 24dd 883f b51f 883f
00000040: 5534 843f d3ef 803f b98b 883f de67 833f
00000050: af0c 893f

mlp.0.bias f4 [21]
0.037445884 0.03836666 0.06217896 -0.05015307 -0.11361978 -0.04985413 -0.0847018 -0.033965733
-0.0051214346 -0.030166797 0.009483862 0.06752566 0.072515085 -0.018144721 3.602094e-05 0.043291572
0.01686571 -0.022258364 0.070116185 0.039410092 -0.009966007
00000000: db60 193d 5c26 1d3d 5daf 7e3d 4e6d 4dbd
00000010: 7db1 e8bd d833 4cbd 2378 adbd a71f 0bbd
00000020: b5d1 a7bb 5c20 f7bc 3362 1b3c e54a 8a3d
00000030: ca82 943d 3da4 94bc 3115 1738 8152 313d
00000040: f529 8a3c 2c57 b6bc 1399 8f3d 7a6c 213d
00000050: 7748 23bc

mlp.1.weight f4 [128, 21]
0.050723206 -0.08033816 -0.20857623 0.28059688 -0.17262629 0.11286291 0.062422074 -0.05706969
-0.17761366 -0.26388225 0.030907407 -0.10239617 0.097212896 0.069514915 -0.058560826 -0.026929114
0.02179445 0.13911267 -0.01557223 -0.1551743 0.035613623 -0.16579664 -0.04246418 -0.20987444
-0.015412146 -0.01122822 0.09389921 -0.09950037 0.06557932 0.31126702 0.29176217 0.05056333
-0.07993679 0.060795598 0.031431526 -0.11451563 -0.27493307 -0.02452162 -0.12471295 -0.11414787
-0.08776181 -0.19700228 -0.0734881 -0.000916739 0.15514727 0.1220447 -0.15018797 0.099385105
-0.063880995 0.14398472 0.32327253 0.1318729 0.06107717 -0.1485798 -0.2200582 -0.111406125
-0.25566813 -0.17288087 0.1614585 -0.19241668 0.04339381 -0.1928024 0.070229486 0.22993486
0.22343041 -0.03755866 -0.20226267 0.22408107 0.0060937474 0.1431951 0.008527577 0.36440855
0.2129459 0.0916392 -0.13801543 0.1167418 -0.11729115 -0.23515458 -0.094678186 0.0066587976
-0.15153916 -0.11672165 0.12353832 0.08652989 0.11094129 -0.09320731 0.09853513 -0.28649938
0.16267139 0.23043539 -0.025383307 0.040108155 0.3926829 0.19604316 0.1811815 0.08869038
-0.020030305 0.11104175 -0.035484895 0.009382674 -0.10644892 -0.1851264 0.069067754 -0.024384884
-0.0045032157 0.09436805 -0.020189563 -0.20943755 0.09953066 -0.08089983 -0.0032510462 0.15982267
0.051130988 -0.23425797 -0.20520748 0.16598487 0.08990347 0.17583436 0.26503938 -0.07964021
-0.18058942 0.122824214 0.134824 0.20778713 -0.058246117 0.09752132 -0.062045764 -0.2348043
-0.001450426 0.20502327 0.14164558 0.19482258 -0.18848673 -0.15949951 -0.08092487 -0.27432638
0.15799746 -0.14675003 0.18287024 0.042062912 0.04751129 0.28298014 0.070704624 -0.1635881
-0.00562316 0.1502206 0.23189548 -0.03375895 -0.18923765 0.18354587 -0.10558499 0.009653343
-0.11491042 -0.1010123 0.107837714 0.32817766 0.25071764 0.1547466 -0.217232 -0.13629213
0.01211272 -0.19675623 0.14474446 -0.17845601 0.1714345 0.22542936 -0.016362533 -0.31547743
-0.15221937 0.063378945 0.15690431 0.1185643 0.06597661 -0.005661002 0.05192438 0.18163733
-0.028880415 0.08571988 0.23304112 -0.1730317 -0.14120884 -0.16379936 -0.234308 0.08617058
-0.05347673 -0.0658803 0.14709218 0.17008838 -0.0587789 0.075047806 -0.064582914 -0.20393465
0.068044156 -0.06350782 -0.107777886 -0.0746715 0.056224518 0.2010415 0.10502875 0.0771231
-0.023766827 0.09380976 -0.054132536 -0.07755811 -0.04210804 -0.21433783 0.024386637 0.031874873
-0.15866147 0.018021483 -0.16539818 0.043529443 0.17036262 0.028592592 -0.13027343 -0.2355715
-0.094220504 -0.18904528 -0.020153498 -0.20815715 -0.11690657 -0.054796133 0.10864259 -0.020154014
0.1343057 0.033689726 0.1823699 0.055793412 0.13835208 0.08239071 0.016904522 0.08299348
0.09787043 -0.17897174 -0.0016518596 0.108239174 -0.066225156 -0.001381256 0.34415352 0.27590355
0.17935464 0.15645611 0.039846048 -0.32812548 0.05563565 -0.24990474 -0.11939077 -0.057094384
-0.0016464315 -0.10348353 0.16041017 -0.08551306 -0.2575882 0.09506595 0.24011512 -0.09550862
00000000: 23c3 4f3d 5588 a4bd 0295 55be 65aa 8f3e
00000010: f2c4 30be ab24 e73d 4aae 7f3d e8c1 69bd
00000020: 5be0 35be 931b 87be 8831 fd3c 15b5 d1bd
00000030: 8e17 c73d d65d 8e3d 7add 6fbd 729a dcbc
00000040: 468a b23c 8d73 0e3e ab22 7fbc 03e6 1ebe
00000050: 97df 113d 98c6 29be ecee 2dbd 53e9 56be
00000060: 3a83 7cbc 91f6 37bc 3b4e c03d dac6 cbbd
00000070: 734e 863d 645e 9f3e da61 953e 7f1b 4f3d
00000080: e6b5 a3bd ce04 793d 58be 003d 2c87 eabd
00000090: 07c4 8cbe 90e1 c8bc 8169 ffbd 5cc6 e9bd
000000a0: 77bc b3bd f7ba 49be ee80 96bd 5051 70ba
000000b0: edde 1e3e 92f2 f93d e0ca 19be 6b8a cb3d
000000c0: 0ad4 82bd bb70 133e fa83 a53e b109 073e
000000d0: 0e2c 7a3d 4e25 18be f056 61be e528 e4bd
000000e0: efe6 82be af07 31be 6155 253e e108 45be
000000f0: b5bd 313d fe6d 45be 7ad4 8f3d 0b74 6b3e
00000100: f1ca 643e 1cd7 19bd f21d 4fbe 8275 653e
00000110: 0fae c73b bca1 123e 40b7 0b3c c293 ba3e
00000120: 7d0e 5a3e 55ad bb3d eb53 0dbe 5316 ef3d
00000130: 5836 f0bd 5dcc 70be a3e6 c1bd 0b32 da3b
00000140: 152d 1bbe c30b efbd a901 fd3d 9536 b13d
00000150: 3035 e33d 79e3 bebd c9cc c93d 0cb0 92be
00000160: 5493 263e 41f7 6b3e a7f0 cfbc 7348 243d
00000170: bc0d c93e 8abf 483e a587 393e 4da3 b53d
00000180: 9816 a4bc db69 e33d 9c58 11bd c9b9 193c
00000190: e401 dabd c691 3dbe 6573 8d3d cfc2 c7bc
000001a0: b68f 93bb 0944 c13d 9564 a5bc cc76 56be
000001b0: bbd6 cb3d cfae a5bd 810f 55bb 8ea8 233e
000001c0: ba6e 513d 52e1 6fbe e921 52be f0f7 293e
000001d0: 4f1f b83d ec0d 343e 3eb3 873e 681a a3bd
000001e0: 6fec 38be 438b fb3d 4d0f 0a3e 26c6 543e
000001f0: 7b93 6ebd 42b9 c73d b323 7ebd 8a70 70be
00000200: 381c beba 9ff1 513e 8a0b 113e 927f 473e
00000210: aa02 41be d753 23be f0bb a5bd 8274 8cbe
00000220: 16ca 213e a445 16be 5642 3b3e 294a 2c3d
00000230: 339b 423d c6e2 903e 96cd 903d a483 27be
00000240: 7c42 b8bb 6ed3 193e 0276 6d3e d346 0abd
00000250: 84c7 41be 73f3 3b3e f13c d8bd 0e29 1e3c
00000260: 2756 ebbd 89df cebd 05da dc3d e706 a83e
00000270: 105e 803e e575 1e3e 1172 5ebe 2a90 0bbe
00000280: 6e74 463c 777a 49be e437 143e 2cbd 36be
00000290: 878c 2f3e f4d6 663e b80a 86bc 4286 a1be
000002a0: 65df 1bbe d2cc 813d 86ab 203e d7d1 f23d
000002b0: bf1e 873d ed7f b9bb a9ae 543d 23ff 393e
000002c0: 9f96 ecbc e88d af3d 55a2 6e3e 392f 31be
000002d0: 0d99 10be 05bb 27be 70ee 6fbe 337a b03d
000002e0: 6a0a 5bbd 40ec 86bd 559f 163e a62b 2e3e
000002f0: 25c2 70bd aab2 993d 0c44 84bd 3fd4 50be
00000300: bc5a 8b3d 6310 82bd a7ba dcbd 5fed 98bd
00000310: ae4b 663d d3dd 4d3e 5019 d73d b7f2 9d3d
00000320: a6b2 c2bc 551f c03d 14ba 5dbd c9d6 9ebd
00000330: 7b79 2cbd 607b 5bbe 7cc6 c73c 3a8f 023d
00000340: 2778 22be caa1 933c 245e 29be ee4b 323d
00000350: 8a73 2e3e 033b ea3c 6666 05be a839 71be
00000360: aef6 c0bd 1695 41be f318 a5bc 2627 55be
00000370: b66c efbd e971 60bd 0280 de3d 081a a5bc
00000380: 6f87 093e 3dfe 093d 2dbf 3a3e a287 643d
00000390: 2bac 0d3e 76bc a83d 5a7b 8a3c 7cf8 a93d
000003a0: 4b70 c83d 5e44 37be 3683 d8ba 80ac dd3d
000003b0: 0ea1 87bd 430b b5ba e434 b03e 3b43 8d3e
000003c0: bea8 373e 0836 203e 9c35 233d 1000 a8be
000003d0: 35e2 633d 07e7 7fbe 2683 f4bd cddb 69bd
000003e0: 13cd d7ba 2cef d3bd 9042 243e 7921 afbd
000003f0: 9ae2 83be f0b1 c23d bde0 753e 069a c3bd

mlp.1.bias f4 [128]
-0.02824718 0.20410213 0.09345084 -0.18767694 0.25715035 0.0010751673 0.08769566 -0.14286418
0.08599008 0.17323484 0.09624474 -0.16780017 -0.11314125 -0.14459142 0.060444664 -0.08429228
0.22896582 -0.17755443 0.053482614 0.03922094 -0.14013743 0.007401339 0.016943181 -0.058884766
-0.12071601 0.17143594 -0.037905466 0.11704591 -0.009529221 0.046209246 -0.047316186 -0.037948523
0.05665466 0.10339543 -0.18998127 0.21143292 0.13638905 -0.080553874 0.16816589 0.10082669
-0.14932409 -0.045208637 0.103701666 0.13262059 -0.12538363 0.09619867 0.044119716 -0.12434273
0.048733998 0.014697237 0.13786377 0.0019729 0.16157527 -0.19141811 0.2287678 -0.17497261
-0.17495349 0.09530156 -0.1461335 0.19738725 -0.19388916 0.07812897 0.15369436 0.22124338
0.09816286 -0.086372346 -0.044725686 -0.046533123 -0.12678084 0.1198529 -0.15039329 0.08491803
0.055507135 -0.060887903 0.03675667 -0.066715114 0.23711282 0.23716012 -0.063157156 0.076312
-0.16719377 0.21687572 -0.12807472 -0.013477141 0.023276428 0.20179164 0.14056464 0.056774598
-0.12493471 0.09263189 0.15117933 -0.0015463129 0.05595797 -0.022069542 -0.17432676 -0.12165488
0.21833631 0.09418332 0.1975667 0.15802205 0.21886984 -0.019733446 0.09707139 -0.16171326
-0.1494931 0.13649821 -0.19871823 0.09018394 0.13390556 0.23142649 -0.045789722 -0.055219945
0.038701423 0.061303545 -0.045736402 0.024189483 0.16921301 -0.091299556 -0.04258967 -0.033062305
0.108600795 0.100561775 -0.063255765 0.24152718 -0.17270437 -0.18459813 0.10679654 0.17056729
00000000: a166 e7bc 2600 513e 2763 bf3d 622e 40be
00000010: 36a9 833e a1ec 8c3a c899 b33d fd4a 12be
00000020: 911b b03d 7964 313e f61b c53d cfd3 2bbe
00000030: 9ab6 e7bd c60f 14be d394 773d 6ea1 acbd
00000040: 0476 6a3e d4d0 35be 9610 5b3d 23a6 203d
00000050: 3080 0fbe ee86 f23b 6dcc 8a3c 2731 71bd
00000060: f539 f7bd e78c 2f3e c342 1bbd c4b5 ef3d
00000070: 7320 1cbc e845 3d3d 9ece 41bd e96f 1bbd
00000080: b70e 683d fcc0 d33d 738a 42be df81 583e
00000090: 92a9 0b3e 6ef9 a4bd ae33 2c3e 397e ce3d
000000a0: 6ae8 18be b12c 39bd 8a61 d43d b1cd 073e
000000b0: 9164 00be cf03 c53d e0b6 343d 67a7 febd
000000c0: 4d9d 473d aecc 703c 292c 0d3e c54b 013b
000000d0: fd73 253e 1c03 44be 1b42 6a3e 052c 33be
000000e0: 0227 33be 772d c33d 05a4 15be e21f 4a3e
000000f0: e18a 46be 1502 a03d 0e62 1d3e a08d 623e
00000100: 9c09 c93d fce3 b0bd 4832 37bd 8499 3ebd
00000110: d6d2 01be 7075 f53d b300 1abe 81e9 ad3d
00000120: 735b 633d 9865 79bd 298e 163d efa1 88bd
00000130: b4cd 723e 1ada 723e 8a58 81bd 7749 9c3d
00000140: d834 2bbe ab14 5e3e 0526 03be 3acf 5cbc
00000150: 35ae be3c 78a2 4e3e 2df0 0f3e 7b8c 683d
00000160: c5dd ffbd cab5 bd3d c1ce 1a3e a7ad caba
00000170: 2f34 653d 2fcb b4bc b782 32be 3226 f9bd
00000180: 8e93 5f3e 2fe3 c03d ed4e 4a3e 88d0 213e
00000190: 6a1f 603e 09a8 a1bc 5dcd c63d 2998 25be
000001a0: b814 19be 30c6 0b3e cb7c 4bbe 5cb2 b83d
000001b0: 8a1e 093e 11fb 6c3e 018e 3bbd 4f2e 62bd
000001c0: 6285 1e3d 6d19 7b3d 1856 3bbd 0629 c63c
000001d0: 2d46 2d3e 43fb babd 8172 2ebd 576c 07bd
000001e0: 186a de3d 55f3 cd3d 3d8c 81bd e752 773e
000001f0: 6ad9 30be 4b07 3dbe 25b8 da3d 31a9 2e3e

mlp.4.weight f4 [64, 128]
-0.048946023 0.039127856 0.10324574 0.17645574 0.10634138 0.027793381 -0.0022177298 0.03121924
-0.008425742 0.04629866 0.049962737 0.10072691 0.10627002 0.02257146 -0.11475341 0.013161332
0.07027599 -0.08701061 -0.099027015 -0.0024722891 0.18683767 -0.048432674 0.035442464 0.100337155
0.019371716 0.040194996 -0.10746595 0.2026185 0.052739576 0.095548995 -0.037708055 -0.07337749
-0.05905006 0.1263666 0.014125748 -0.006589694 0.024189472 -0.06652096 0.14519525 -0.12284825
-0.037671965 0.036234863 -0.055668034 0.06960205 -0.02891847 0.09700984 -0.00043487735 -0.1256994
0.05723371 0.18979451 0.112054765 0.09196678 -0.029161058 0.19848065 0.08391743 -0.048975058
0.058408167 -0.016945092 0.0143864 -0.04063075 0.13142094 0.057884056 0.11535009 0.1093289
-0.012240705 0.03279322 0.14517441 0.22092937 -0.054341566 0.17762436 0.020699792 -0.06446794
0.1815359 0.073831946 -0.052770287 0.07116727 -0.026089516 0.08403972 0.108337395 -0.024794048
0.10440629 0.13500892 0.049052846 0.0685482 0.09479034 -0.023811506 0.09949967 0.055339143
-0.11054929 -0.0816392 0.029217996 -0.110685 -0.025828125 0.11674603 -0.054331947 -0.098942816
-0.04638493 -0.03477342 0.03563141 0.035024945 0.0020268143 0.071142145 -0.00828565 -0.0867182
0.04324282 -0.011696799 0.030865155 0.07774699 -0.037485432 -0.04934738 0.059472192 0.04667863
-0.10244934 -0.030751698 0.043921255 0.066322684 0.08809005 0.16540103 0.006219897 0.036429007
0.111000784 0.0828937 0.1675463 0.11998693 0.039305367 -0.030046934 -0.018380163 -0.03418123
-0.1406715 0.03652335 0.16020674 0.053907115 0.03893413 -0.014338688 0.04572762 0.017713903
0.040258616 0.10769165 0.07051882 -0.017598268 0.1319504 -0.10837165 -0.06580665 0.006847098
0.0931245 -0.102390125 -0.118280955 0.043963037 0.1697888 0.07150498 0.089124635 0.1261124
0.13055448 0.035351638 0.008366528 0.036347438 -0.07386235 0.05221801 0.023471888 -0.035967123
0.12986137 2.8550301e-05 -0.01797495 0.07221778 0.030087002 -0.10433905 0.099896975 0.01728762
-0.009679217 0.01668551 -0.03609445 0.1075326 0.046474434 0.026192779 -0.030251618 0.057749674
-0.057406913 0.033006314 0.100684784 -0.043195706 0.00035315397 0.05772316 -0.06821753 -0.051270746
-0.038599737 0.07158973 -0.011327592 -0.03075445 -0.016968947 0.05120726 0.06286383 0.098623574
-0.07919638 0.046559248 0.058726653 0.095524095 -0.13388047 0.09571099 -0.0883695 -0.07259141
0.0829585 -0.01821726 -0.055122823 -0.15597345 -0.00095888646 0.098676145 0.046982348 0.0059887436
0.028901063 0.09533995 -0.05255013 0.027059136 0.035280526 0.023906332 0.11862208 -0.057897903
-0.091527954 0.004330682 0.052643914 -0.03987816 -0.09103376 0.03834279 0.054528378 -0.09740131
0.10655631 -0.004094321 -0.03324469 -0.0055245664 0.050348468 0.11741146 -0.042803247 0.06168218
-0.036779836 -0.004680103 0.08084291 -0.016984547 0.015519648 -0.07477589 0.07753998 -0.03607292
-0.006538437 -0.04241703 0.030414078 0.096752785 0.032303542 -0.07987104 -0.0065275454 -0.041206166
0.08465693 -0.02159668 0.014205392 0.1121669 -0.07469956 0.004282033 0.056217793 -0.0965053
00000000: a07b 48bd 8844 203d 8172 d33d d0b0 343e
00000010: 82c9 d93d f2ae e33c 5557 11bb 7ebf ff3c
00000020: 200c 0abc aaa3 3d3d baa5 4c3d e949 ce3d
00000030: 19a4 d93d c8e7 b83c d603 ebbd a1a2 573c
00000040: dcec 8f3d 9e32 b2bd adce cabd 2106 22bb
00000050: 6052 3f3e 5761 46bd 1e2c 113d 917d cd3d
00000060: 6fb1 9e3c 82a3 243d 1c17 dcbd 397b 4f3e
00000070: 7405 583d 31af c33d c373 1abd f046 96bd
00000080: 7ade 71bd 3f66 013e ae6f 673c 5cee d7bb
00000090: 0029 c63c 243c 88bd 10ae 143e dd97 fbbd
000000a0: eb4d 1abd 026b 143d 2a04 64bd 858b 8e3d
000000b0: 6de6 ecbc 18ad c63d 4000 e4b9 58b7 00be
000000c0: e56d 6a3d 7e59 423e f87c e53d 1459 bc3d
000000d0: 2ce3 eebc 833e 4b3e e7dc ab3d 129a 48bd
000000e0: 673d 6f3d 6fd0 8abc efb4 6b3c 6e6c 26bd
000000f0: 3693 063e d517 6d3d ab3c ec3d d5e7 df3d
00000100: 3d8d 48bc 2f52 063d 9aa8 143e 4f3b 623e
00000110: 4395 5ebd 29e3 353e 9c92 a93c c407 84bd
00000120: 8ce4 393e 3435 973d a825 58bd 25c0 913d
00000130: aeb9 d5bc 041d ac3d ffdf dd3d e31c cbbc
00000140: f7d2 d53d c73f 0a3e a3eb 483d 0063 8c3d
00000150: 7021 c23d 5910 c3bc 7cc6 cb3d 4cab 623d
00000160: ab67 e2bd 7432 a7bd 945a ef3c d1ae e2bd
00000170: 8195 d3bc 8b18 ef3d 2d8b 5ebd 88a2 cabd
00000180: 20fe 3dbd 936e 0ebd 3ef2 113d 5176 0f3d
00000190: 4dd4 043b f9b2 913d 89c0 07bc 5099 b1bd
000001a0: 621f 313d eea3 3fbc ecd8 fc3c d039 9f3d
000001b0: 538a 19bd 7a20 4abd 1d99 733d 1732 3f3d
000001c0: f6d0 d1bd fcea fbbc c6e6 333d 30d4 873d
000001d0: 8e68 b43d e35e 293e 47d0 cb3b 9536 153d
000001e0: 6154 e33d 2cc4 a93d 4291 2b3e b5bb f53d
000001f0: aafe 203d fd24 f6bc ff91 96bc 9e01 0cbd
00000200: 310c 10be 8299 153d 3c0d 243e b5cd 5c3d
00000210: 6579 1f3d d1ec 6abc e34c 3b3d bf1c 913c
00000220: 38e6 243d 718d dc3d 2c6c 903d 3e2a 90bc
00000230: 011e 073e f5f1 ddbd a3c5 86bd 9f5d e03b
00000240: 0fb8 be3d eab1 d1bd 493d f2bd 9612 343d
00000250: 1ddd 2d3e 3471 923d fa86 b63d 9c23 013e
00000260: 13b0 053e e1cc 103d c313 093c 0de1 143d
00000270: 2545 97bd 8de2 553d 1e48 c03c 4352 13bd
00000280: 61fa 043e 4e7f ef37 3440 93bc eae6 933d
00000290: 0479 f63c b6af d5bd c996 cc3d c49e 8d3c
000002a0: 9495 1ebc 0db0 883c c6d7 13bd 0d3a dc3d
000002b0: fa5b 3e3d 3d92 d63c 3ed2 f7bc ec8a 6c3d
000002c0: 8323 6bbd a131 073d d333 ce3d fbed 30bd
000002d0: 8627 b939 1f6f 6c3d a2b5 8bbd 4601 52bd
000002e0: c21a 1ebd a39d 923d 5d97 39bc c2f0 fbbc
000002f0: 7602 8bbc b4be 513d c0be 803d 28fb c93d
00000300: b631 a2bd e9b4 3e3d 5c8b 703d 23a2 c33d
00000310: f617 09be 2004 c43d 12fb b4bd ceaa 94bd
00000320: 25e6 a93d 5d3c 95bc 78c8 61bd 81b7 1fbe
00000330: c85d 7bba b816 ca3d 9070 403d 393d c43b
00000340: ecc1 ec3c 9741 c33d ce3e 57bd 1fab dd3c
00000350: 5082 103d 36d7 c33c 22f0 f23d 5a26 6dbd
00000360: 0273 bbbd 65e8 8d3b 25a1 573d 4857 23bd
00000370: e86f babd 540d 1d3d 2659 5f3d 577a c7bd
00000380: 323a da3d a729 86bb 962b 08bd 6c07 b5bb
00000390: 323a 4e3d 6b75 f03d 7552 2fbd 74a6 7c3d
000003a0: 74a6 16bd 8d5b 99bb f890 a53d 2d23 8bbc
000003b0: 1f46 7e3c 1a24 99bd 48cd 9e3d 33c1 13bd
000003c0: 6340 d6bb 7bbd 2dbd f226 f93c 5326 c63d
000003d0: b850 043d 6e93 a3bd 05e5 d5bb ccc7 28bd
000003e0: 9d60 ad3d 85eb b0bc bcbd 683c c2b7 e53d
000003f0: 15fc 98bd 4c50 8c3b a144 663d 92a4 c5bd

mlp.4.bias f4 [64]
-0.037880123 0.0932686 0.04785857 -0.047888566 -0.014757285 0.05546817 -0.024002364 -0.05620487
0.05060565 -0.027103903 -0.048439305 -0.04800888 -0.032036077 0.10920022 0.023585906 -0.1021912
-0.026174314 -0.028129723 0.03495843 -0.09793229 0.022846326 -0.015512983 -0.043472417 0.044806346
-0.081354626 0.0104919905 -0.01788538 0.03272298 0.034616273 0.036731847 -0.07423141 0.008335771
0.0017103032 -0.0053931177 -0.021490468 -0.05285009 0.016097091 0.051589865 0.07337881 0.044117764
0.06690651 0.12806712 -0.010201559 0.106510974 0.0023300187 0.09262071 -0.049045064 0.0130096795
0.07173815 0.0016974377 0.06706683 -0.010341856 -0.037455574 -0.0184339 0.071349524 -0.028728979
-0.013909927 0.008819348 0.10799213 -0.009123956 0.09024327 0.10440469 -0.052486174 0.08646365
00000000: 3028 1bbd 9c03 bf3d 5907 443d cd26 44bd
00000010: 8ac8 71bc 9832 633d 9ba0 c4bc 1437 66bd
00000020: df47 4f3d 0109 debc 4b68 46bd f6a4 44bd
00000030: 4338 03bd 5da4 df3d 3b37 c13c 9f49 d1bd
00000040: 846b d6bc 4e70 e6bc 9230 0f3d b990 c8bd
00000050: 3828 bb3c 2b2a 7ebc 2210 32bd dc86 373d
00000060: 419d a6bd 99e6 2b3c 5c84 92bc 8808 063d
00000070: cbc9 0d3d 2274 163d a306 98bd c292 083c
00000080: 412c e03a c0b8 b0bb c70c b0bc 5679 58bd
00000090: 0cde 833c e54f 533d a147 963d d4b4 343d
000000a0: 4806 893d 0724 033e 7124 27bc 6d22 da3d
000000b0: 3ab3 183b edaf bd3d 7ae3 48bd 8d26 553c
000000c0: 74eb 923d 8f7c de3a 565a 893d e370 29bc
000000d0: 046b 19bd b102 97bc b31f 923d 0959 ebbc
000000e0: 76e6 63bc 077f 103c fa2a dd3d a57c 15bc
000000f0: 77d1 b83d 20d2 d53d befb 56bd db13 b13d

mlp.7.weight f4 [3, 64]
0.08169313 -0.058338385 -0.11741653 -0.09867244 0.060572043 -0.20260441 0.01866268 -0.117158495
0.11944873 0.027842913 -0.21752273 0.18946318 0.09424915 0.031780582 0.17026767 -0.0476822
-0.13090496 -0.19415134 -0.18969798 -0.03799046 0.16572581 -0.07380198 -0.14689255 -0.21932593
0.035753023 -0.17378314 0.10184858 -0.19050704 -0.16465573 0.09499908 0.12881929 -0.044492938
0.16559687 -0.20224302 -0.1574577 -0.093685806 0.13400833 0.098772965 0.13401893 -0.10561106
-0.16294546 -0.10237504 -0.018160703 -0.1842746 0.030868722 0.10945825 0.040379643 -0.09617239
-0.063559234 0.059002284 0.1292602 0.030170351 0.18490507 0.20323205 0.0943825 -0.07693922
-0.04771493 -0.082142174 0.13918436 -0.11164697 0.1212261 0.001134438 0.11918039 0.1519449
0.10365153 0.035902202 -0.0562922 0.16567467 0.065571725 -0.0042748093 0.028968604 0.14353463
-0.114737615 -0.1471345 0.09479304 -0.05182612 -0.078781575 -0.23809473 -0.015230201 -0.0031378418
0.18684153 0.10530108 0.052637063 0.09654109 -0.08307532 0.1373319 0.11474565 0.115818284
0.23128642 0.06402775 -0.040601954 -0.127466 -0.08996634 -0.13522635 0.046675224 0.20680739
-0.109600596 0.191965 -0.13454968 0.09894151 0.086449355 -0.19611935 0.13617116 0.059747603
-0.053493563 -0.15120155 -0.08554385 0.06573655 0.020225307 -0.17162584 0.0022391381 0.1809891
0.07701033 -0.256542 -0.16336559 0.16530497 -0.14682469 0.11793405 -0.15586455 -0.15465939
0.12984067 -0.09265833 0.10219986 0.17401642 -0.15374796 -0.021237126 -0.15090197 -0.08419367
-0.19664972 -0.1777465 0.16872898 0.09109296 -0.20054969 0.05686993 -0.019204391 -0.07454994
0.09708365 0.12962773 0.18543477 0.01458821 0.13921824 -0.010382685 0.0462551 0.07877869
-0.105843596 -0.19626845 0.110775605 0.010720271 0.12332599 -0.16885407 0.1255933 0.1351909
0.018659761 0.15214087 -0.195312 0.051098336 0.12258927 0.089608036 -0.17397685 -0.050267037
0.13326706 -0.1648418 0.20132113 -0.08178871 -0.1867311 0.15075496 -0.14294958 -0.11637869
0.17366593 0.10012962 0.14965604 0.16864888 -0.21714424 -0.07465251 0.2245158 -0.08559767
0.12691419 0.0589162 -0.14523634 -0.24268743 -0.07472134 -0.1427797 0.09839464 0.118838266
-0.03279459 0.12906961 -0.12645201 0.14310339 0.089000426 0.18035442 -0.07599783 -0.116158314
00000000: ba4e a73d 3bf4 6ebd 1478 f0bd c714 cabd
00000010: 641a 783d 8877 4fbe 7ae2 983c cbf0 efbd
00000020: 89a1 f43d d216 e43c 47be 5ebe a302 423e
00000030: b305 c13d 5b2c 023d a65a 2e3e 694e 43bd
00000040: f30b 06be 9ccf 46be 3040 42be e29b 1bbd
00000050: 07b4 293e 7e25 97bd 006b 16be fa96 60be
00000060: c371 123d 35f4 31be fd95 d03d 4714 43be
00000070: 839b 28be e18e c23d 34e9 033e 3a3e 36bd
00000080: 3a92 293e cb18 4fbe 973c 21be 58de bfbd
00000090: 7b39 093e 7b49 ca3d 423c 093e 9d4a d8bd
000000a0: 2ddb 26be 01aa d1bd c1c5 94bc 7bb2 3cbe
000000b0: 67e0 fc3c a62b e03d 2065 253d 08f6 c4bd
000000c0: 582b 82bd 61ac 713d c95c 043e d027 f73c
000000d0: c157 3d3e 101c 503e 9d4b c13d 4f92 9dbd
000000e0: bb70 43bd 283a a8bd 5886 0e3e 2ba7 e4bd
000000f0: 6445 f83d 6cb1 943a d914 f43d 7297 1b3e
00000100: 4147 d43d 300e 133d a692 66bd 9fa6 293e
00000110: 784a 863d b313 8cbb 914f ed3c befa 123e
00000120: 8efb eabd 6daa 16be da22 c23d a047 54bd
00000130: 3c58 a1bd 1bcf 73be 1888 79bc 40a4 4dbb
00000140: 6353 3f3e 18a8 d73d f699 573d 56b7 c53d
00000150: 6523 aabd bca0 0c3e c4ff ea3d 2332 ed3d
00000160: 59d6 6c3e fb20 833d 3c4e 26bd 7286 02be
00000170: 4640 b8bd c778 0abe 852e 3f3d 51c5 533e
00000180: 4776 e0bd 7992 443e 64c7 09be d9a1 ca3d
00000190: 5c0c b13d 83d3 48be 7470 0b3e e7b9 743d
000001a0: 111c 5bbd 94d4 1abe 9d31 afbd e2a0 863d
000001b0: 8baf a53c afbe 2fbe 81be 123b 3555 393e
000001c0: 98b7 9d3d 7959 83be 4f49 27be b545 293e
000001d0: 3659 16be 6887 f13d f59a 1fbe 085f 1ebe
000001e0: f4f4 043e a7c3 bdbd 294e d13d 5c31 323e
000001f0: 1b70 1dbe 7bf9 adbc 0c86 1abe bb6d acbd
00000200: 8b5e 49be 2e03 36be 4ac7 2c3e f28e ba3d
00000210: e65c 4dbe 72f0 683d 8752 9dbc a4ad 98bd
00000220: cbd3 c63d 22bd 043e 9de2 3d3e 6303 6f3c
00000230: 3a8f 0e3e 231c 2abc fd75 3d3d b956 a13d
00000240: 87c4 d8bd 99fa 48be 52de e23d 13a4 2f3c
00000250: 5692 fc3d 15e8 2cbe 889b 003e 7c6f 0a3e
00000260: 5bdc 983c d1ca 1b3e deff 47be 7d4c 513d
00000270: 1510 fb3d 6b84 b73d fd26 32be cfe4 4dbd
00000280: 2977 083e 4acc 28be 2027 4e3e d780 a7bd
00000290: 7036 3fbe 825f 1a3e 6061 12be f357 eebd
000002a0: 7bd5 313e c210 cd3d 6f3f 193e 4bb2 2c3e
000002b0: 0f5b 5ebe 6ae3 98bd 78e7 653e d54d afbd
000002c0: cbf5 013e 1d52 713d d6b8 14be 0e83 78be
000002d0: 8007 99bd d734 12be 2183 c93d 7a61 f33d
000002e0: 9f53 06bd d32a 043e a37c 01be b289 123e
000002f0: db45 b63d d4ae 383e c0a4 9bbd 69e4 edbd

mlp.7.bias f4 [3]
-0.005350792 -0.10267789 -0.05719765
00000000: b255 afbb c948 d2bd 1548 6abd

exp_avg f4 [21]
-0.00063920254 -0.0005498758 -0.00011797215 0.0003000981 0.0006190127 0.00083269994 0.00014656842 0.0039415653
0.0015596052 -0.010887151 0.0041103917 0.0008414922 -0.0034855313 -0.0008573708 -0.00024783984 0.0021897655
0.0045608873 0.002711461 -0.0011239551 -0.0015643333 -0.0069721397
00000000: 2890 27ba 8a25 10ba d167 f7b8 7c56 9d39
00000010: 3d45 223a 8c49 5a3a 29b0 1939 3f28 813b
00000020: ab6b cc3a 0560 32bc 77b0 863b 9697 5c3a
00000030: 836d 64bb 2ec1 60ba 80f0 81b9 2b82 0f3b
00000040: 7f73 953b c4b2 313b ad51 93ba 510a cdba
00000050: 8c76 e4bb

exp_avg_sq f4 [21]
4.5180186e-06 1.0199222e-05 1.3989699e-05 0.00020173157 2.141262e-05 5.476387e-05 2.3930153e-05 9.27088e-05
0.0011034001 0.00053824094 0.0001792571 2.3816217e-05 0.00032527995 6.5409884e-05 9.236811e-05 4.8845264e-05
0.00024056806 8.895061e-05 1.5798649e-05 3.048188e-05 0.0002795502
00000000: 7c99 9736 531d 2b37 4db5 6a37 e887 5339
00000010: 409f b337 42b2 6538 9dbd c837 a86c c238
00000020: f79f 903a bd18 0d3a f6f6 3b39 f0c8 c737
00000030: 568a aa39 aa2c 8938 c0b5 c138 34df 4c38
00000040: ff40 7c39 ff8a ba38 5787 8437 57b3 ff37
00000050: 9890 9239

exp_avg f4 [21]
0.0029783235 -0.000120186196 -0.0007317764 0.00043492473 0.0012144106 0.00010206194 0.0005254681 0.00023123295
-0.002036031 -0.00105039 -0.0019186083 -0.0013322486 0.0006817282 0.00025621912 -0.0004752155 0.0014958583
0.0004083337 -0.00058428186 -0.0039150063 0.0013718463 0.0020601773
00000000: fa2f 433b 790c fcb8 afd4 3fba 9c06 e439
00000010: dc2c 9f3a 160a d638 91bf 093a 1f77 7239
00000020: ef6e 05bb 3dad 89ba d079 fbba d89e aeba
00000030: 01b6 323a 2655 8639 5826 f9b9 ad10 c43a
00000040: 9f15 d639 7e2a 19ba 7449 80bb 86cf b33a
00000050: 0a04 073b

exp_avg_sq f4 [21]
4.607437e-05 1.491189e-05 2.2614096e-05 0.00011787539 1.5786349e-05 3.475142e-05 1.6812875e-05 0.00014501876
0.001455615 0.00046347763 0.00023338394 1.2407679e-05 0.00020573522 6.205794e-05 0.00020449676 7.282558e-05
0.00018536761 7.961906e-05 3.5053534e-05 3.8503666e-05 0.00024160107
00000000: fa3f 4138 142e 7a37 67b3 bd37 de33 f738
00000010: ed6c 8437 0ec2 1138 6009 8d37 2d10 1839
00000020: 56ca be3a eafe f239 86b8 7439 932a 5037
00000030: a1ba 5739 1a25 8238 2e6e 5639 f0b9 9838
00000040: 3d5f 4239 28f9 a638 7206 1338 ff7e 2138
00000050: 4b56 7d39

exp_avg f4 [128, 21]
-5.808459e-05 -0.0005035977 -0.00049054297 0.0005784517 8.5223015e-05 0.0006519212 0.00058226194 -0.0008811205
-0.00041020496 0.0013601248 -0.000516542 -0.0010457244 -0.0010247516 -0.00039340174 0.0002334995 0.0010790267
0.00088784937 0.0006673933 0.0002648368 -2.2694969e-05 -0.00092002214 0.00051032315 0.0012397072 0.0012048057
-0.0012875771 0.00021999843 -0.0011466761 -0.0013928569 0.0028670225 0.0014323519 -0.0033993307 0.0014850738
0.001382053 0.0026018964 0.0016130666 0.00085854257 -0.0025487193 -0.0035332667 -0.0036946593 -0.0014475519
-0.00016719244 0.0031899172 0.00043368808 0.00016599467 0.00016330836 -7.96913e-05 0.00042366036 -0.00072077324
1.2062037e-05 0.00021719476 -0.0005389669 -0.00032979815 0.0006911354 0.00075150543 0.0005650534 3.756793e-05
-0.0005699893 -0.00091154414 -0.00047781543 3.3313147e-06 5.444871e-05 -0.000105823834 1.3554e-05 0.00016514293
-0.00094253605 -0.0009200475 0.001750292 0.0014049348 0.0019347589 0.0012604818 0.00032339824 -0.0010790287
0.0013096135 -0.0007792155 -0.0030040075 -0.0017773856 -0.00017815203 0.0012868918 0.0008637536 -0.0015434126
-0.0020410274 -0.0006243727 0.0009878005 0.0019237644 -0.0004553143 -8.879225e-05 -8.80236e-05 0.00076592824
0.0010787171 0.0011534517 0.0004795881 0.0012373768 0.00022743118 -0.001181433 -0.0020934567 -0.001602022
-0.0006167919 0.0001279275 0.0004541372 -0.00030108882 -0.0013845606 -0.00089249125 0.00035810418 0.0013280922
0.0015986821 -0.00019875194 0.0007614245 0.0007360092 -0.0018367919 -0.0013557929 -0.0008686864 -0.0013368519
-0.000745836 0.0018993445 -0.00064715446 -0.0005895348 0.00066432636 0.0009334092 0.0011430715 0.0010731275
0.00039673434 -0.00043957727 -0.0004995925 -0.0001948155 0.00048509942 0.0008949108 -4.953948e-05 -0.0010219266
-0.0009906422 0.0018739788 0.0007146084 0.0013707095 0.0014006644 -0.0010168087 -0.0011312147 0.0017603678
0.00032732406 -0.0021608048 -0.0021440957 -0.001532218 -0.00024970868 0.0014937241 0.002174308 0.0012627267
0.00040502503 -0.000662795 -0.0016988907 0.00055177236 0.0014208155 0.0013859976 -0.0016408176 -0.00065427076
-0.0015304511 -0.0020857493 0.0022326803 0.0015353718 -0.0038368911 0.0025118447 0.002372382 0.0030830645
0.0015398519 0.00043217765 -0.0026386934 -0.0025422508 -0.0026705782 -0.0010672803 -0.00065397593 0.0021408296
0.00012365077 0.0001259494 0.000121199686 -0.00032074883 -3.6894062e-06 6.314374e-05 -0.00020452132 0.0005476864
0.00018409747 -0.0006972156 0.0004122449 4.7661317e-05 0.0003648521 0.00025416102 0.00030922264 -0.0002763119
-0.000520449 -0.00075152016 -0.00032602172 -9.349395e-05 0.0006454015 5.6550387e-05 2.6425e-05 2.7312364e-05
9.813951e-05 6.705441e-05 5.188414e-05 3.4270197e-05 -1.2419097e-05 2.543192e-05 -8.2087914e-05 -0.00012367571
-0.0001456405 -5.8278827e-05 7.1919844e-06 3.549927e-05 -4.529295e-05 -0.00013242007 -6.1511455e-05 6.420245e-05
0.00011555263 7.5652984e-05 -2.6311262e-05 1.73737e-05 1.682541e-05 -1.2776596e-05 3.63056e-07 1.0689359e-05
7.772597e-06 -4.2914385e-06 1.2372071e-05 1.9703535e-05 7.4966633e-06 6.6260254e-06 9.454003e-06 9.500849e-06
6.571017e-06 2.4898561e-06 -1.206244e-06 -7.164071e-06 -2.188225e-05 -3.1962256e-05 -2.0582082e-05 0.00031112722
-0.00023386927 -0.00023041038 0.0009786278 0.0010486332 0.0011618258 0.00044706682 0.0022467363 -0.00046428404
-0.0025417584 0.0021908763 -0.0010063524 0.0001018354 -0.0007432291 -7.257193e-05 -0.00088266266 0.00053275295
-0.00069137407 -0.00016178912 -0.0016733995 -0.00048831804 6.4739406e-06 -5.09638e-07 -2.3347457e-07 1.7237593e-05
00000000: db9f 73b8 df03 04ba c897 00ba 3da3 173a
00000010: c2b9 b238 b1e5 2a3a f0a2 183a fffa 66ba
00000020: c710 d7b9 3746 b23a 8c68 07ba b010 89ba
00000030: f550 86ba 7d41 ceb9 8bd7 7439 216e 8d3a
00000040: 90be 683a 02f4 2e3a cbd9 8a39 1361 beb7
00000050: a42d 71ba 35c7 053a ac7d a23a 92ea 9d3a
00000060: ebc3 a8ba 61af 6639 114c 96ba 8690 b6ba
00000070: a8e4 3b3b c1bd bb3a 4ec7 5ebb cfa6 c23a
00000080: 0126 b53a 9484 2a3b 896d d33a d10f 613a
00000090: 6a08 27bb 618e 67bb 1922 72bb c8bb bdba
000000a0: 6150 2fb9 ee0d 513b a160 e339 db0e 2e39
000000b0: c13d 2b39 f11f a7b8 bb1e de39 46f2 3cba
000000c0: 0e5e 4a37 c6be 6339 7549 0dba c2e8 acb9
000000d0: 502d 353a ad00 453a 1720 143a 4292 1d38
000000e0: 566b 15ba b1f4 6eba 4d83 fab9 8d8f 5f36
000000f0: db5f 6438 bded ddb8 fd65 6337 382a 2d39
00000100: 8614 77ba 582f 71ba 0e6a e53a ca25 b83a
00000110: bc97 fd3a c036 a53a c78d a939 326e 8dba
00000120: 56a7 ab3a 4444 4cba e2de 44bb 2af7 e8ba
00000130: 52ce 3ab9 ecac a83a 866d 623a 554c caba
00000140: c2c2 05bb f1ac 23ba 1679 813a d226 fc3a
00000150: 40b7 eeb9 fa35 bab8 4f99 b8b8 93c8 483a
00000160: bd63 8d3a 6b2f 973a 3a71 fb39 7a2f a23a
00000170: 987a 6e39 50da 9aba 6032 09bb f0fa d1ba
00000180: 34b0 21ba 4724 0639 4319 ee39 75db 9db9
00000190: 257a b5ba 13f6 69ba eebf bb39 6113 ae3a
000001a0: df8a d13a 1168 50b9 559a 473a bef0 403a
000001b0: 82c0 f0ba dcb4 b1ba 8fb8 63ba 4e39 afba
000001c0: 3584 43ba 6df3 f83a cda5 29ba 038b 1aba
000001d0: 3026 2e3a 08b0 743a 1dd3 953a 2fa8 8c3a
000001e0: c800 d039 1077 e6b9 16f7 02ba 6347 4cb9
000001f0: f154 fe39 7298 6a3a 9dc8 4fb8 2bf2 85ba
00000200: 70d8 81ba 4ba0 f53a 8f54 3b3a 61a9 b33a
00000210: 8096 b73a 7046 85ba 4445 94ba 24bc e63a
00000220: b19c ab39 4a9c 0dbb f583 0cbb b4d4 c8ba
00000230: 55eb 82b9 10c9 c33a d67e 0e3b 1482 a53a
00000240: 8a59 d439 6bbf 2dba 50ad deba d1a4 103a
00000250: a83a ba3a 5daa b53a b410 d7ba 5e83 2bba
00000260: 6b99 c8ba 11b1 08bb 2952 123b 873e c93a
00000270: 5a74 7bbb c39d 243b f779 1b3b 3d0d 4a3b
00000280: dbd4 c93a e795 e239 eeed 2cbb e49b 26bb
00000290: de04 2fbb fce3 8bba 956f 2bba 294d 0c3b
000002a0: 40a8 0139 4911 0439 962c fe38 2e2a a8b9
000002b0: 8497 77b6 0a6c 8438 c674 56b9 9d92 0f3a
000002c0: 4a0a 4139 59c5 36ba 9322 d839 f3e7 4738
000002d0: 9f49 bf39 ea40 8539 291f a239 f5dd 90b9
000002e0: be6e 08ba aa01 45ba e5ed aab9 2f12 c4b8
000002f0: 2930 293a 8430 6d38 41ab dd37 db1c e537
00000300: 40d0 cd38 909f 8c38 2c9e 5938 58bd 0f38
00000310: 9e5b 50b7 a256 d537 9d26 acb8 f2ae 01b9
00000320: 13b7 18b9 6a70 74b8 ad52 f136 0de5 1438
00000330: eff8 3db8 3eda 0ab9 b6ff 80b8 6ea4 8638
00000340: d954 f238 e3a7 9e38 01b7 dcb7 bdbd 9137
00000350: 4b24 8d37 105b 56b7 09ea c234 7356 3337
00000360: 0d67 0237 2dff 8fb6 a491 4f37 0549 a537
00000370: d98b fb36 2055 de36 a29c 1e37 d665 1f37
00000380: 9b7c dc36 6717 2736 3ae6 a1b5 e762 f0b6
00000390: c68f b7b7 360f 06b8 afa7 acb7 ca1e a339
000003a0: ce3a 75b9 519a 71b9 4d45 803a 4b72 893a
000003b0: 6848 983a 4b64 ea39 fb3d 133b 266b f3b9
000003c0: a193 26bb ce94 0f3b 95e7 83ba 7790 d538
000003d0: 43d5 42ba c231 98b8 7d62 67ba 72a8 0b3a
000003e0: 543d 35ba f0a5 29b9 f855 dbba 7802 00ba
000003f0: ba3a d936 0fce 08b5 00b1 7ab4 7399 9037

exp_avg_sq f4 [128, 21]
1.5154088e-06 6.51251e-06 6.505862e-06 1.8192635e-05 1.0534009e-05 1.8751294e-05 1.50600545e-05 8.296904e-06
1.42349e-05 1.5117286e-05 1.13218985e-05 1.9959385e-05 1.6226779e-05 1.1955285e-05 7.0290694e-06 9.989485e-06
1.665401e-05 1.0230777e-05 6.9083767e-06 9.140811e-06 1.6722737e-05 6.4971837e-06 2.3705192e-05 2.3638522e-05
6.9713096e-05 3.8974627e-05 6.250768e-05 5.761496e-05 2.9258632e-05 3.928191e-05 5.957533e-05 3.6989808e-05
8.205071e-05 6.830253e-05 4.6434212e-05 2.3064034e-05 3.18078e-05 6.558537e-05 4.8569396e-05 2.7795935e-05
2.6379148e-05 5.7683974e-05 2.8865977e-06 1.4934968e-05 1.4864499e-05 4.7180325e-05 2.7264037e-05 3.9573886e-05
3.9921662e-05 2.0901909e-05 2.647974e-05 3.546081e-05 2.2288608e-05 5.4154538e-05 4.602665e-05 3.1855412e-05
1.4099839e-05 1.8459928e-05 4.342316e-05 3.2078584e-05 1.7440098e-05 1.6167856e-05 3.776677e-05 2.0392063e-06
5.915216e-06 5.866436e-06 2.2486685e-05 1.5921276e-05 1.9837495e-05 1.614429e-05 5.720849e-06 1.10677865e-05
2.1254451e-05 1.1902943e-05 2.4661977e-05 1.5748547e-05 7.998699e-06 7.500301e-06 7.7624245e-06 1.08892e-05
1.6249807e-05 8.918945e-06 7.716312e-06 1.7209895e-05 2.8675593e-06 6.387422e-06 6.3653915e-06 1.4924104e-05
1.0348852e-05 2.4098477e-05 1.1432627e-05 1.2923633e-05 1.0623172e-05 2.1420783e-05 1.4795852e-05 2.5872201e-05
1.2910405e-05 5.658247e-06 9.737067e-06 1.2233667e-05 1.1741929e-05 1.5755257e-05 1.1588052e-05 1.5241396e-05
2.0530006e-05 1.2579997e-06 9.5754185e-06 9.551132e-06 2.369527e-05 1.5792531e-05 2.6369737e-05 2.3237748e-05
1.20942705e-05 1.6654614e-05 9.221875e-06 1.5621352e-05 2.0510093e-05 2.059012e-05 1.9693563e-05 1.1749545e-05
5.8409105e-06 1.6821228e-05 1.5318717e-05 9.150477e-06 5.607431e-06 1.9746427e-05 1.6298171e-06 9.468065e-06
9.43023e-06 2.5895151e-05 1.3536205e-05 2.635064e-05 2.1306476e-05 9.807191e-06 1.6893502e-05 1.7400538e-05
1.237228e-05 3.1843956e-05 2.532142e-05 1.7465456e-05 8.1998505e-06 1.0475968e-05 2.2915672e-05 1.6528038e-05
8.388933e-06 8.127955e-06 1.9757768e-05 2.9760988e-06 1.774269e-05 1.7681326e-05 5.8004873e-05 2.7248703e-05
3.9161096e-05 4.5361234e-05 1.8209346e-05 3.220688e-05 4.117362e-05 1.9917265e-05 6.5651635e-05 5.9940143e-05
4.0281542e-05 1.5277325e-05 2.2883502e-05 5.5084114e-05 3.34663e-05 1.5831722e-05 1.4786615e-05 4.432454e-05
2.9904106e-07 1.5428506e-06 1.5306686e-06 3.991006e-06 2.4915398e-06 3.4162856e-06 3.3734113e-06 1.6889616e-06
2.868572e-06 3.3739125e-06 2.4237331e-06 4.2193033e-06 3.5339917e-06 2.5320467e-06 1.2219992e-06 1.5719584e-06
3.4433656e-06 2.7497e-06 1.6607282e-06 1.4208025e-06 3.0294543e-06 3.1068754e-07 1.2688589e-06 1.2762715e-06
4.0572636e-06 2.280823e-06 2.5846928e-06 2.9739158e-06 1.4023553e-06 2.95441e-06 4.16727e-06 2.2909908e-06
4.282717e-06 3.5595615e-06 2.4352196e-06 1.4164423e-06 1.619509e-06 2.974778e-06 2.5477507e-06 1.6050808e-06
1.7094644e-06 3.2340033e-06 2.3858286e-07 7.860955e-07 7.720403e-07 7.485224e-07 6.809746e-07 1.0484191e-06
9.3904885e-07 1.246681e-07 1.2035015e-06 6.400099e-07 2.46119e-07 7.938868e-07 6.195414e-07 4.603502e-07
4.2761494e-07 5.9124585e-07 5.808765e-07 2.7765256e-07 3.362751e-07 5.533373e-07 5.9672453e-07 1.8783036e-06
1.699284e-05 1.7027338e-05 4.8649847e-05 2.9151239e-05 4.4929657e-05 4.2645057e-05 2.398436e-05 3.0339052e-05
3.718147e-05 2.9123692e-05 5.763038e-05 4.8188023e-05 3.305344e-05 1.6578635e-05 1.46388e-05 3.2953452e-05
3.0251047e-05 1.8080753e-05 1.3058947e-05 3.2574593e-05 9.085037e-08 2.3327088e-07 2.2924448e-07 2.3619869e-07
00000000: 0d65 cb35 0986 da36 ee4c da36 639c 9837
00000010: 39bb 3037 194c 9d37 71aa 7c37 ee32 0b37
00000020: 6ed2 6e37 40a0 7d37 2ff3 3d37 746e a737
00000030: be1e 8837 8f93 4837 3fdb eb36 8398 2737
00000040: 37b4 8b37 daa4 2b37 81ce e736 7c5b 1937
00000050: ce47 8c37 6202 da36 83da c637 574b c637
00000060: ef32 9238 b078 2338 8e16 8338 98a7 7138
00000070: 6f70 f537 a1c2 2438 86e0 7938 8125 1b38
00000080: a412 ac38 a43d 8f38 5bc2 4238 a379 c137
00000090: 5d69 0538 e18a 8938 feb6 4b38 512b e937
000000a0: ca48 dd37 b2f1 7138 5fb7 4136 3391 7a37
000000b0: 8962 7937 7de3 4538 13b5 e437 23fc 2538
000000c0: 8f71 2738 8256 af37 cf20 de37 c1bb 1438
000000d0: 6cf8 ba37 fe23 6338 bd0c 4138 7d9c 0538
000000e0: 598e 6c37 65da 9a37 4321 3638 1e8c 0638
000000f0: 534c 9237 35a0 8737 c367 1e38 4cd9 0836
00000100: 527b c636 4dd8 c436 caa1 bc37 ae8e 8537
00000110: b268 a637 996d 8737 b8f5 bf36 c8af 3937
00000120: 964b b237 c0b2 4737 31e1 ce37 bf1b 8437
00000130: 2732 0637 18ab fb36 5c3b 0237 c2b0 3637
00000140: 3250 8837 94a2 1537 4f75 0137 f85d 9037
00000150: 4b70 4036 8a53 d636 4c96 d536 8a62 7a37
00000160: fb9f 2d37 1627 ca37 c2ce 3f37 95d2 5837
00000170: 2d3a 3237 c8b0 b337 b33b 7837 2108 d937
00000180: c499 5837 f9db bd36 625c 2337 333f 4d37
00000190: 33ff 4437 282a 8437 4e6a 4237 4cb5 7f37
000001a0: da37 ac37 8ad8 a835 1ca6 2037 cd3d 2037
000001b0: 34c5 c637 347a 8437 9434 dd37 afee c237
000001c0: 7fe8 4a37 83b5 8b37 a7b7 1a37 990a 8337
000001d0: 170d ac37 f2b8 ac37 9b33 a537 e91f 4537
000001e0: 0afd c336 501b 8d37 b280 8037 0085 1937
000001f0: 7727 bc36 21a5 a537 17c0 da35 08d9 1e37
00000200: 8836 1e37 6a39 d937 8f19 6337 920b dd37
00000210: 4fbb b237 9189 2437 85b6 8d37 5ff7 9137
00000220: 8a92 4f37 3090 0538 5669 d437 c882 9237
00000230: 1792 0937 f1c1 2f37 083b c037 b1a5 8a37
00000240: 31be 0c37 4d5d 0837 7cbd a537 fdb8 4736
00000250: 23d6 9437 5c52 9437 424a 7338 2594 e437
00000260: e840 2438 4142 3e38 46c0 9837 e015 0738
00000270: d6b1 2c38 0014 a737 74ae 8938 3d68 7b38
00000280: faf3 2838 ce27 8037 f2f5 bf37 1e0a 6738
00000290: 2a5e 0c38 5dce 8437 0714 7837 1de9 3938
000002a0: e48b a034 f113 cf35 5f71 cd35 7bea 8536
000002b0: 5434 2736 5743 6536 c462 6236 47b0 e235
000002c0: b181 4036 606b 6236 6ba7 2236 8a93 8d36
000002d0: 8429 6d36 3bec 2936 9303 a435 14fc d235
000002e0: 9214 6736 7c87 3836 30e6 de35 67b2 be35
000002f0: a14d 4b36 92cc a634 a94d aa35 5b4c ab35
00000300: a123 8836 3e10 1936 af74 2d36 7c93 4736
00000310: 9038 bc35 6144 4636 94d4 8b36 ecbe 1936
00000320: 42b4 8f36 cde0 6e36 c16c 2336 961c be35
00000330: e85d d935 4ca2 4736 06fa 2a36 286e d735
00000340: c070 e535 c107 5936 9416 8034 1204 5335
00000350: 353e 4f35 11ee 4835 38cc 3635 68b7 8c35
00000360: f212 7c35 82dc 0534 ff87 a135 25cd 2b35
00000370: 5622 8434 7c1b 5535 904e 2635 0d26 f734
00000380: f392 e534 1bb6 1e35 87ed 1b35 4710 9534
00000390: 4c89 b434 0d89 1435 992e 2035 051a fc35
000003a0: d98b 8e37 eed5 8e37 600d 4c38 cf89 f437
000003b0: da72 3c38 c8dd 3238 0532 c937 9e80 fe37
000003c0: 4df3 1b38 a74e f437 26b8 7138 7f1d 4a38
000003d0: dca2 0a38 5912 8b37 2b99 7537 8037 0a38
000003e0: a1c3 fd37 1fac 9737 c017 5b37 b4a0 0838
000003f0: 8519 c333 0379 7a34 3e26 7634 cd9d 7d34

exp_avg f4 [128]
0.00055970746 -0.00097381667 -5.703292e-07 0.0014135606 0.0004124481 -0.001248916 0.0012869328 -0.0016183765
-0.00015858939 8.1151644e-05 -1.8321673e-05 0.00036293388 1.0438573e-05 0.00021788439 0.00011251571 0.00058125716
0.00030043203 -7.8951416e-05 0.0005246726 -3.2986798e-05 -4.0876344e-05 0.00080788037 -1.9597279e-05 -0.00011623734
1.8494896e-07 1.8410272e-05 0.00061417365 0.00012104014 0.00039787887 0.00030153478 0.00020502975 -0.00047228145
-0.00035355947 0.00024947332 -9.905128e-05 -0.0003778579 -0.00059289136 -0.00020595889 2.169131e-05 -0.00029323893
-2.4181925e-05 -8.861507e-05 0.0006140462 -0.00015069124 -0.00012467732 -7.932234e-05 -0.00044040257 0.0009122431
0.0009832323 0.00014097296 0.0014847806 0.0007786294 -0.00041441346 5.7373563e-05 0.00013338203 0.0009254597
-0.00019014474 -3.251842e-05 -0.00051585364 -7.391715e-05 -0.00043862322 -0.00049843057 0.00015552915 -4.029184e-05
0.0002463205 -0.0011227718 -4.1893e-06 -0.00030308033 -5.1688643e-05 0.0004264183 -3.6827387e-05 -2.5457757e-06
-6.080341e-05 -7.647519e-05 0.0029455535 -0.00027742452 -0.0003088057 -0.00036272846 -9.00338e-05 0.0017006879
0.00070465996 3.2959904e-06 -7.762104e-05 -9.9668236e-05 -0.0005670781 0.00013191144 -3.5234858e-05 -5.3337728e-05
0.00017700292 -0.00066749076 4.8454996e-05 0.00019116914 6.718107e-05 -0.00028298606 -0.0001610454 -0.00066687126
-0.0005997969 0.0004409983 -2.6313539e-05 0.0009237607 -9.305669e-05 2.2621946e-06 0.00036524882 -6.0206614e-05
0.0003480522 5.532632e-05 -2.3613993e-05 -0.0002692256 -1.3504432e-05 -0.0010682512 -0.00020519721 -0.0006251287
0.0011726511 0.0013593227 3.6067166e-05 -1.5485008e-06 4.985919e-05 -0.0003620317 0.00094374473 -0.00044541954
-0.00025306598 -3.051624e-05 0.0013852472 -7.417979e-05 0.0001705527 -0.00034980418 -0.00040306675 0.0002653831
00000000: 55b9 123a bb47 7fba b918 19b5 3947 b93a
00000010: d93d d839 abb2 a3ba 4dae a83a b41f d4ba
00000020: 044b 26b9 f52f aa38 7eb1 99b7 2948 be39
00000030: 5421 2f37 e577 6439 69f6 eb38 825f 183a
00000040: 4e83 9d39 b892 a5b8 2f8a 093a 4e5b 0ab8
00000050: a472 2bb8 efc7 533a d664 a4b7 72c4 f3b8
00000060: 6296 4634 c26f 9a37 7f00 213a eed6 fd38
00000070: 669a d039 5017 9e39 41fd 5639 8b9c f7b9
00000080: f35d b9b9 becb 8239 c0b9 cfb8 3b1b c6b9
00000090: 446c 1bba abf6 57b9 bcf5 b537 ddbd 99b9
000000a0: 4ada cab7 dad6 b9b8 f1f7 203a df02 1eb9
000000b0: d0bb 02b9 db59 a6b8 d5e5 e6b9 9923 6f3a
000000c0: cddf 803a 24d2 1339 f89c c23a ef1c 4c3a
000000d0: a245 d9b9 65a4 7038 77dc 0b39 8d9a 723a
000000e0: 9761 47b9 6364 08b8 5a3a 07ba f803 9bb8
000000f0: 03f7 e5b9 1ca9 02ba 8a15 2339 09ff 28b8
00000100: 9424 8139 f829 93ba d091 8cb6 c1e6 9eb9
00000110: 42cc 58b8 e590 df39 1b77 1ab8 18d8 2ab6
00000120: 2a07 7fb8 4e61 a0b8 300a 413b 4a73 91b9
00000130: 33e7 a1b9 972c beb9 87d0 bcb8 9ee9 de3a
00000140: eeb8 383a af30 5d36 7bc8 a2b8 fa04 d1b8
00000150: f8a7 14ba b551 0a39 24c9 13b8 f3b6 5fb8
00000160: dc99 3939 8cfa 2eba 283c 4b38 9374 4839
00000170: 90e3 8c38 bf5d 94b9 4cde 28b9 f9d0 2eba
00000180: b03b 1dba ca35 e739 e5bb dcb7 8828 723a
00000190: 6e27 c3b8 35d0 1736 de7e bf39 5c86 7cb8
000001a0: c77a b639 2f0e 6838 aa16 c6b7 d926 8db9
000001b0: 1891 62b7 9004 8cba 352a 57b9 addf 23ba
000001c0: a4b3 993a 4d2b b23a d346 1738 15d6 cfb5
000001d0: e61f 5138 12cf bdb9 a365 773a 3387 e9b9
000001e0: f1ad 84b9 20fd ffb7 2f91 b53a f990 9bb8
000001f0: 64d6 3239 ec65 b7b9 b452 d3b9 1e23 8b39

exp_avg_sq f4 [128]
1.1104855e-05 4.0640643e-05 2.6306103e-05 1.2120212e-05 1.284436e-05 1.3734757e-05 1.5384001e-05 3.0971627e-05
2.2655845e-06 2.2209044e-06 3.4160402e-07 2.8331524e-05 2.0393709e-07 8.7321627e-07 6.008449e-06 6.782565e-06
1.998891e-06 5.860528e-07 1.6104317e-05 3.314858e-07 1.4405248e-07 8.962925e-06 4.573262e-07 7.805725e-07
8.9687404e-07 2.3345574e-06 2.0209798e-05 5.3478566e-06 5.5144988e-06 3.6283356e-05 5.793897e-06 7.169574e-06
1.006857e-06 8.4226285e-06 1.6090209e-07 3.4704544e-06 8.04823e-06 1.9151643e-05 7.2613926e-07 1.5961172e-05
1.5696743e-06 3.1643248e-07 2.1213436e-06 1.2482586e-06 3.6349622e-06 2.1710375e-07 2.9192172e-06 2.7306012e-05
4.4430694e-06 8.4066605e-06 1.3855708e-05 5.809522e-06 3.5560256e-06 5.8248183e-06 4.1067137e-06 2.9734676e-06
6.8891504e-06 3.6467338e-07 2.2188156e-06 6.0414936e-07 1.594233e-05 7.766407e-06 5.2906257e-06 4.0496673e-07
7.946578e-06 5.396378e-06 8.274065e-07 6.0048023e-06 3.5806876e-05 3.4378067e-05 6.3775205e-06 1.451928e-06
7.2663133e-06 6.3785996e-07 3.546605e-05 2.5457066e-06 1.3080985e-05 2.7027972e-06 1.0190387e-05 3.1595904e-05
5.9446098e-05 9.3522124e-07 5.888392e-06 7.863689e-07 2.3100485e-05 1.9752765e-07 2.6950653e-07 5.9773706e-06
2.2250855e-05 8.162596e-07 6.8677896e-06 8.16182e-06 1.381767e-06 1.4815537e-06 5.3090716e-06 1.5467625e-05
2.2447869e-06 1.0194842e-05 2.7042195e-06 7.864635e-06 3.0875222e-07 4.4843782e-07 7.646618e-07 1.4506297e-05
5.0280496e-06 1.0700393e-05 9.43365e-07 3.2874589e-06 1.8979878e-06 1.5321659e-05 1.676936e-06 5.046238e-06
9.464668e-06 2.5996804e-05 5.4271635e-07 8.636737e-07 3.983456e-07 1.82364e-06 1.2615577e-05 9.826816e-06
1.235747e-06 3.7516224e-07 1.0694459e-05 6.940146e-07 4.3555783e-06 3.7048758e-06 3.0910196e-06 5.1165284e-06
00000000: fd4e 3a37 8f75 2a38 edab dc37 ea57 4b37
00000010: 1b7e 5737 556e 6637 e40c 8137 88e7 0138
00000020: 720a 1836 d90a 1536 b365 b734 7ca9 ed37
00000030: cdf9 5a34 f766 6a35 2f9c c936 ca95 e336
00000040: b024 0636 3e51 1d35 c217 8737 10f7 b134
00000050: d8ac 1a34 785f 1637 6f86 f534 8988 5135
00000060: b7c0 7035 64ab 1c36 3688 a937 bd71 b336
00000070: 2f09 b936 f52e 1838 3269 c236 2c92 f036
00000080: 5823 8735 ea4e 0d37 6ec4 2c34 f4e5 6836
00000090: e206 0737 d7a7 a037 e9eb 4235 5be4 8537
000000a0: 99ad d235 26e2 a934 685c 0e36 d789 a735
000000b0: 2df0 7336 061d 6934 c5e7 4336 370f e537
000000c0: ad15 9536 550a 0d37 d075 6837 6aef c236
000000d0: 0ea4 6e36 cf72 c336 67cc 8936 c98b 4736
000000e0: 5a29 e736 54c8 c334 f6e6 1436 d42c 2235
000000f0: e5bb 8537 774c 0237 2186 b136 346a d934
00000100: 4b52 0537 8912 b536 f11a 5e35 dc7c c936
00000110: 572f 1638 2b31 1038 7cfe d536 dedf c235
00000120: 28d1 f336 6739 2b35 62c1 1438 e8d6 2a36
00000130: 6776 5b37 b461 3536 61f7 2a37 d885 0438
00000140: c355 7938 ea0b 7b35 e794 c536 dc16 5335
00000150: eac7 c137 fd17 5434 b2b0 9034 3991 c836
00000160: 59a7 ba37 ef1c 5b35 dd71 e636 c0ee 0837
00000170: 2775 b935 ccd9 c635 9424 b236 79c0 8137
00000180: 25a5 1636 830a 2b37 237a 3536 5af2 0337
00000190: 95c2 a534 d3c0 f034 2943 4d35 1260 7337
000001a0: 9eb6 a836 d785 3337 8d3b 7d35 1d9e 5c36
000001b0: 5dbe fe35 0387 8037 1513 e135 db52 a936
000001c0: 71ca 1e37 b613 da37 2faf 1135 34d7 6735
000001d0: 34dc d534 cbc3 f435 7ea7 5337 dadd 2437
000001e0: f2db a535 e869 c934 5a6c 3337 524c 3a35
000001f0: 2226 9236 48a1 7836 506f 4f36 a5ae ab36
