saved_models/stats_only_mlp_run_20250401_120851/stats_only_mlp_run_20250401_120851_best_model.pth (torch, 148302 bytes, 24 tensors)

mlp.0.weight f4 [21]
000000 ad 68 87 3f e5 65 8a 3f 4e 09 8a 3f 53 2b 8f 3f
       1.057882 1.0812346 1.078409 1.1185097
000010 27 69 88 3f e7 73 7c 3f 67 56 81 3f 36 b0 7c 3f
       1.065709 0.9861435 1.0104493 0.98706377
000020 a1 f2 a1 3f 71 61 96 3f 79 e9 87 3f d9 43 78 3f
       1.265217 1.1748487 1.0618125 0.9697853
000030 00 8c 82 3f 13 dc 87 3f 8a fb 8a 3f c5 dc 86 3f
       1.0198975 1.0614036 1.0858014 1.0536124
000040 bb 5a 88 3f 4a 1f 82 3f fa 21 83 3f 1f 17 8d 3f
       1.0652689 1.0165799 1.0244744 1.1022681
000050 fb 0b 90 3f
       1.1253656

mlp.0.bias f4 [21]
000000 89 49 c1 bc 05 78 5f 3d 04 f0 9b 3d 01 43 9d bd
       -0.023594635 0.05455782 0.07614139 -0.076787956
000010 c6 3e c0 bd 88 da c3 bd 9a 13 04 be af 91 32 3a
       -0.09386973 -0.09563166 -0.12898102 0.00068118697
000020 69 7b b9 bc 4d 97 9e bd c6 cc b1 bc 9d 85 02 3e
       -0.022641854 -0.07743702 -0.021704089 0.12746282
000030 ce 42 1c 3c c5 15 63 3d 99 b8 2f 3d 7d 60 1a bd
       0.009537412 0.055440683 0.042900655 -0.037689675
000040 df b6 9c bc 48 5e 80 3b ef df 72 3d c9 9f 5f 3c
       -0.019130168 0.003917489 0.05929559 0.013648936
000050 1b 18 eb 3b
       0.0071745045

mlp.1.weight f4 [128, 21]
000000 13 eb 21 3e ee 02 06 be 6e 57 20 be 44 06 11 3e
       0.1581233 -0.13087055 -0.15658352 0.14162546
000010 68 e4 15 3e 17 1e a2 3d 10 0a d7 bd 76 2e 49 bd
       0.14637911 0.079158954 -0.10499966 -0.049116574
000020 63 59 90 be 5f 81 bb bd 2f 74 6c 3c e3 b2 2e 3e
       -0.28193197 -0.09155535 0.014431997 0.17060427
000030 dc 62 9d 3d 02 d7 e6 3d 62 58 e3 3d 39 57 b5 3d
       0.076848716 0.11271478 0.11100842 0.08854527
000040 7c 7a 19 bd e3 34 a5 3d fa 52 12 3c e3 5d bf 3c
       -0.037470326 0.08066728 0.008930916 0.023360198
000050 70 e0 4e 3e 20 3c 31 be 5c 29 00 be a4 96 09 bd
       0.20202804 -0.17308092 -0.12515777 -0.033590928
000060 08 3b 9c bd 69 c2 ff 3c 46 4d 7c bd e6 30 41 3c
       -0.07628447 0.031220632 -0.06159713 0.011791443
000070 c5 21 40 3e e5 96 d2 bd d8 a9 9a 3d d4 d9 9f 3d
       0.18762882 -0.10282687 0.075519264 0.07805219
000080 47 a0 f3 3d 8e 53 04 bd 69 ba 13 3b 5f 51 c9 bd
       0.11895805 -0.032306246 0.002254153 -0.098299734
000090 1d 14 9a be 9d 95 98 ba aa 09 a0 bc e9 b4 45 3e
       -0.3009347 -0.0011641268 -0.019535858 0.19307293
0000a0 e5 0f 9b 3e f2 3d 74 3e f7 9f f1 3d 76 eb 31 be
       0.30285564 0.23851755 0.11798089 -0.17374977
0000b0 ba ca 77 3e 9e 61 51 be a9 0d 39 be 8a ea 83 3d
       0.24198428 -0.20447394 -0.18071617 0.06441219
0000c0 bf 3b a6 be cb d9 56 3e 56 e6 7e 3d 92 8e 61 3e
       -0.32467458 0.20981519 0.062231384 0.22027043
0000d0 03 42 af 3d 6b 8b 41 3e 1b 4f e0 3d e0 e5 0c be
       0.085575126 0.1890084 0.10952588 -0.13759565
0000e0 b2 67 b2 3d f0 b9 10 3e 9c d8 1e be f8 8b 95 bd
       0.087111846 0.1413343 -0.15512317 -0.073020875
0000f0 37 1e e4 bd 21 35 8f bd 5c 19 be 3e fa 58 55 bd
       -0.111385755 -0.069925554 0.37128723 -0.052086808
000100 02 6c 8b 3e 35 16 8a 3e 8f 17 4c be 21 89 51 3c
       0.2723084 0.26970068 -0.19930862 0.012789042
000110 4f 97 3b 3c 95 c0 6b be d8 06 0f be 7b 8e 88 3e
       0.011449649 -0.23022683 -0.13967454 0.26671204
000120 16 1c 47 be bd 42 ce bc 5b 31 72 3c e8 fc 1f 3e
       -0.19444308 -0.025178308 0.014782275 0.1562382
000130 2b d8 22 be a7 dd 1e be 6e 99 73 3e 86 43 70 3c
       -0.15902774 -0.15514241 0.23788998 0.014664536
000140 e9 30 bf bb 20 21 ab 3e e4 65 0e 3e 26 a4 39 bd
       -0.005834688 0.3342371 0.13906056 -0.04532256
000150 26 85 29 3e bb 15 a2 3e d2 75 ed 3d 56 06 08 be
       0.16554698 0.31657204 0.11594738 -0.13283667
000160 0c 13 2e be 8a 24 a5 be 4e aa 8d be c8 35 64 3e
       -0.16999453 -0.3225444 -0.27668995 0.22286141
000170 50 04 14 3e 38 2a f7 bd a7 4a fd 3d af d1 b1 bd
       0.1445477 -0.120685995 0.123677544 -0.08682572
000180 08 30 24 be 8b f4 34 3e 6b ed f6 3c 0f 9e 8e bd
       -0.16033947 0.1767141 0.030142507 -0.06963741
000190 1b bd b8 3d eb 81 9a bd 48 f0 92 3b d8 6d f8 3d
       0.09020444 -0.07544311 0.00448421 0.12130326
0001a0 15 87 05 3c 32 17 1f 3e 07 3a 01 be ee dc c3 3a
       0.008149882 0.15536192 -0.12619792 0.0014943162
0001b0 9a ae 00 3d 22 6c 77 be 19 2a ad 3b ae 72 bd bd
       0.031416513 -0.24162343 0.0052845594 -0.09250389
0001c0 13 5e 02 be 28 7e 14 3e 09 dc 70 be 90 85 87 bd
       -0.12731199 0.1450125 -0.23521437 -0.06617272
0001d0 18 61 04 3e 22 b7 7f 3e 80 67 43 3e 1b d2 21 3e
       0.12927663 0.24972203 0.19082451 0.15802805
0001e0 57 0b 29 39 b1 51 fa bc 70 16 80 be 2a 4b 64 3e
       0.0001612132 -0.030556532 -0.25017118 0.22294298
0001f0 ab 30 a6 3d 14 24 e0 3d 1d 92 05 be 7d a7 6d 3e
       0.081147514 0.10944381 -0.13044019 0.23208423
000200 80 f1 84 3c 1c e8 0a be 7f b0 95 3d 45 a0 cb 3d
       0.016228437 -0.13565105 0.073090546 0.09942678
000210 a0 2f d8 bd 58 a6 31 3e ee db 7f 3e 7a f3 23 3e
       -0.10555959 0.17348611 0.2498624 0.16010848
000220 0c ef c4 bc 27 e1 a6 3c 4d 60 35 bd 31 d5 98 be
       -0.024039768 0.020371033 -0.044281293 -0.29850152
000230 1d 19 c7 3c ae 6e 7d be d3 6b 0a be 0e cf 60 bd
       0.024303967 -0.24749252 -0.13517694 -0.054884963
000240 87 26 4a be 44 cd 20 be 68 d3 a1 3d 49 48 44 bd
       -0.1974126 -0.15703303 0.07901651 -0.0479205
000250 0d af 84 be 88 88 71 bd dc 0a 2a 3e bb b6 db bd
       -0.25914803 -0.058968097 0.16605705 -0.107282124
000260 f4 59 69 be a9 76 1e be 95 93 51 be 85 6c a3 be
       -0.2278822 -0.15474953 -0.20466454 -0.3191873
000270 39 fd 0f 3e c6 10 69 3e f9 1c 3a 3e 5a 22 9d 3d
       0.1406144 0.22760305 0.18175115 0.07672568
000280 d6 04 62 3e 1c 66 bd 3d b8 b4 35 be 09 f2 8e be
       0.22072157 0.092479914 -0.1774472 -0.27919033
000290 bf 1a dc bd 28 6a 91 3e 4e 27 e2 3d 96 56 f8 3c
       -0.10747289 0.28401303 0.11042653 0.030314725
0002a0 86 8c 36 be db 64 cd bd 7f ed 40 be 7a b9 ac 3d
       -0.17827043 -0.10029002 -0.18840598 0.08433814
0002b0 6b 18 89 3c af 92 33 be 9a 17 a8 3d 22 db e9 bc
       0.016735276 -0.17536424 0.08207627 -0.028546873
0002c0 76 b7 d2 3d b9 8a 02 3d 3a 0e a5 bc e3 bd 9d 3d
       0.10288899 0.031870577 -0.020148385 0.07702234
0002d0 53 5f bc 3d 02 9a 1c 3e 01 5c 25 3a c0 77 22 be
       0.09197869 0.15293124 0.000630796 -0.15865993
0002e0 16 0c 1c 3e a2 6f 6e 3d d0 95 cf bd be 25 ec 3d
       0.15238985 0.05821193 -0.10135996 0.11530636
0002f0 27 5e ae be 6c 8b b6 bd d4 01 60 3d d9 87 92 3e
       -0.34056208 -0.08913311 0.054689243 0.2861927
000300 3b af 92 3d 00 c9 45 be 20 70 5c 3d 7d 76 36 be
       0.07162329 -0.19314957 0.05381787 -0.17818637
000310 c2 4a 52 3d 5a 6b 86 3d 9a 66 fb 3d 55 e9 98 bd
       0.051340826 0.065634444 0.12275429 -0.074663796
000320 bc 61 5e 3e 17 11 05 3e 80 65 aa 3d 7e a9 4d be
       0.2171697 0.129948 0.08320141 -0.20084187
000330 5b 92 fd 3d 63 5b 2f 3e 79 f8 d9 bd 22 19 07 3e
       0.12381431 0.17124705 -0.106430955 0.13193181
000340 09 99 35 bd 6a e6 48 3e ff 68 dd bd 9d 46 73 3e
       -0.0443354 0.19619146 -0.10811042 0.23757406
000350 f8 e5 8e 3e 24 58 76 be 7c b7 90 bd 1c 06 1f 3c
       0.27909827 -0.2405706 -0.07066247 0.009706046
000360 47 8f 3b be 86 59 b4 bd 2f 5d c9 3d 57 ec 50 be
       -0.18316375 -0.08806138 0.098322265 -0.20402656
000370 80 a0 dd bd b4 3c 90 3e f8 5e f5 bd 5c c8 b6 bc
       -0.108216286 0.28171313 -0.119810045 -0.022312336
000380 5b 59 af bc 18 1e de bc 22 ae c7 3d 67 50 a4 bd
       -0.021404913 -0.02711396 0.0975001 -0.08023148
000390 32 e8 b6 3c eb 47 aa 3d 94 1c af 3b cf 05 1a 3e
       0.022327516 0.083144985 0.005343983 0.15041278
0003a0 21 b5 bd 3d 6a 5e 2b 3e 09 14 0d 3e 23 37 19 3e
       0.09263063 0.16735235 0.13777174 0.14962439
0003b0 13 a6 d1 bd 38 18 2f be df 5e 61 3e 93 6e 5a be
       -0.10236754 -0.17099082 0.22008847 -0.21331243
0003c0 3b 93 36 3c 17 a3 ad 3c c3 18 ed bd ad d5 c4 bd
       0.011143501 0.021195931 -0.115769885 -0.09611068
0003d0 94 a6 a3 3e 9b bb 26 3e 8a 6e 1e 3e 48 d9 52 3e
       0.31963027 0.16282503 0.15471855 0.20590699
0003e0 4e 9d b7 3c 3b 96 44 be f7 c5 35 3c 47 ad 1d 3e
       0.022413876 -0.19197933 0.011094562 0.15398131
0003f0 18 d6 16 3e 62 58 95 3e e3 3b 07 3e 55 45 95 3c
       0.14730108 0.29168993 0.13206439 0.018221537

mlp.1.bias f4 [128]
000000 9c 02 bc bb f2 4e f1 3d 95 cf c5 bd db a9 ef 3d
       -0.0057376157 0.11782636 -0.09658734 0.11702319
000010 50 90 e8 3c 2a 09 b4 bd 86 8f f6 3d e2 24 f1 3d
       0.028389126 -0.087908104 0.12039094 0.11774613
000020 ae 8e 17 3e fb 6b be 3d 58 b8 c3 3d 8e 1e 94 3d
       0.14800522 0.092979394 0.09556645 0.0723239
000030 41 1b 44 3d 54 27 b0 3d b8 ae 5c 3e f3 46 86 bd
       0.047877554 0.08601251 0.21551025 -0.06556501
000040 c3 ff 92 3c a8 8d 8a 3d 72 a8 21 3e c9 f9 7b 3d
       0.017944222 0.067653 0.15786913 0.06151751
000050 b4 fe 97 3d 33 66 ec bd 14 c5 7c 3e b3 26 38 3e
       0.07421628 -0.115429305 0.24684554 0.17983513
000060 c9 9c 2d be a9 7e 7b 3c d2 45 4f 3e 56 9d c2 3d
       -0.1695434 0.015350022 0.20241478 0.09502666
000070 16 c1 2d be 92 23 a5 bc 73 9f d5 bb 45 86 88 bd
       -0.16968188 -0.020158563 -0.006519252 -0.06666235
000080 1c cb 4d 3e c0 13 52 3c f2 b6 d4 bc 34 72 c0 bd
       0.20097011 0.012822092 -0.025966141 -0.093967825
000090 5c 55 1d 3d 7b dc 39 be cf 8e 21 bd 63 4f 34 be
       0.038411483 -0.18150513 -0.039442834 -0.17608409
0000a0 21 83 3d be 71 7f 12 be 4f 83 25 be 07 90 49 3e
       -0.18507053 -0.14306428 -0.16163372 0.19683848
0000b0 83 79 cc bb 5d 67 4e 3e d9 82 6a bd 72 f1 3f be
       -0.0062400713 0.20156617 -0.057253692 -0.18744448
0000c0 db 01 ce bd 52 53 7b 3e d5 77 ce bd 6d 8d dc bd
       -0.10058948 0.24543503 -0.1008145 -0.10769162
0000d0 91 f9 28 be 42 04 e0 bd 16 44 f2 bd 52 49 8a 3e
       -0.16501452 -0.10938312 -0.118293926 0.27009064
0000e0 2c bc 66 3d 1b b8 b9 3e 99 29 94 3d c5 50 58 3e
       0.0563318 0.36273274 0.072344966 0.21124561
0000f0 b6 86 23 bd 66 cb 9e 3c 22 16 8a 3d a9 70 f3 bd
       -0.039923392 0.019384097 0.06742503 -0.118867226
000100 43 d8 d5 3c 0c 9a 9f bd 1e 3f 1c 3e f3 80 50 3e
       0.026104098 -0.07793054 0.15258452 0.2036169
000110 c8 c7 37 3e 7f 6d 09 3e 80 8a 32 bd 56 f9 14 3d
       0.17947304 0.13420676 -0.043589115 0.036370598
000120 5a 18 22 3d 4b 18 50 3e 29 d8 77 bd c8 5a 2d 3e
       0.039574005 0.20321767 -0.06050888 0.16929162
000130 79 ff 36 bd c8 52 3a 3e 61 f0 1b 3c e3 ba a1 bd
       -0.04467723 0.18195641 0.00951776 -0.07896974
000140 08 e8 b1 bd 59 23 ba bd ee 76 17 be 64 fe 17 3e
       -0.086868346 -0.09088773 -0.14791462 0.14843136
000150 5e 31 2f be ac 47 09 be 67 68 8a 3e bc 94 c2 bd
       -0.17108676 -0.13406247 0.27032778 -0.09501025
000160 ef b4 02 3e e6 03 73 3d 2d 99 28 bc b2 02 8e be
       0.12764333 0.05932989 -0.010290426 -0.2773643
000170 c6 dd d4 3d 89 f0 bc 3d 92 5e 2e bd 15 28 54 3c
       0.103938624 0.09225566 -0.042570658 0.012949009
000180 5b 94 53 3d c4 94 21 bc 2d b0 24 3c 32 b6 0d be
       0.051655155 -0.009862129 0.010051769 -0.13839033
000190 2b ea 84 bd e0 1b a1 3c 01 09 8e 3d b2 d9 5b 3e
       -0.064899765 0.019666612 0.06935311 0.21469763
0001a0 6c 64 10 3b 74 fc b0 bd b0 b7 ed bd c9 0b c5 bd
       0.0022032512 -0.086419016 -0.11607301 -0.096213885
0001b0 1d 30 35 3e ae e7 54 3e 85 5c 54 3e 25 93 02 be
       0.17694135 0.20791504 0.20738418 -0.12751444
0001c0 7e fd 80 3d fd 41 51 3d dd d6 6a be 0d 9f 2a be
       0.0629835 0.051088322 -0.22933526 -0.16662236
0001d0 c0 d3 3f 3e 4d 70 31 bd 7f 74 1b 3d 70 02 03 bd
       0.1873312 -0.04331999 0.037952896 -0.031984746
0001e0 d9 3f 29 3e 9d 54 ac bd 07 53 ce bd d3 25 a9 bd
       0.16528262 -0.08414576 -0.1007443 -0.082591675
0001f0 90 38 37 be 11 09 41 3e ef f6 83 be ce dc 3b be
       -0.1789267 0.18851115 -0.25774333 -0.18345949

mlp.4.weight f4 [64, 128]
000000 4b 7f 76 3d 02 ac 03 3e 48 52 5c be a6 8e dc bc
       0.06017999 0.12858585 -0.21515763 -0.026923489
000010 34 5e bd bd 33 06 85 bd 95 b3 b9 3d b9 ec df 3d
       -0.092464834 -0.06495323 0.09067456 0.10933823
000020 19 6a 79 3d be ce 1d 3b 5e 9e a3 bd 8b 64 3c 3e
       0.0608922 0.0024079527 -0.079891905 0.18397729
000030 3a 0e ca 3d 96 55 f5 bd c1 e8 b2 3d 56 b2 01 3e
       0.09865995 -0.11979215 0.087358005 0.12665686
000040 69 6d ca 3c 1d 34 97 3d 52 43 2a 3d 13 b8 cb 3d
       0.024710374 0.07382987 0.041568108 0.09947219
000050 7b 68 74 bd 67 42 de 3d ac 79 82 3d 36 2e 87 3d
       -0.059669953 0.10852509 0.06370863 0.06600611
000060 06 25 95 3d 26 6e 2a 3d 39 fa 1e be dc 1d cb bc
       0.07282452 0.041608952 -0.1552514 -0.024794511
000070 fb 0d e8 3d eb 9c 28 be de cc bd 3d 55 11 bc 3d
       0.113307916 -0.1646611 0.09267591 0.09182993
000080 8b d7 b0 bd 44 b2 75 3d 8d 5d 1f bd f5 0f 91 3d
       -0.086348616 0.05998446 -0.038907576 0.07083122
000090 ec f9 d5 3d 84 18 1b 3e f2 f5 8a bc df ff bc bd
       0.104480594 0.1514607 -0.016962979 -0.09228491
0000a0 9e 1d aa bd c6 da ae 3c 2d b3 01 3e ff 64 64 3d
       -0.0830643 0.021344554 0.12666006 0.05576038
0000b0 37 f7 85 3d 7b 21 06 3d 03 d9 a7 3d 3e be 7b 3d
       0.06541293 0.032746773 0.081956886 0.061460726
0000c0 c0 0b b8 3d 19 79 88 bd d3 77 d3 3d 15 bd 78 bd
       0.08986616 -0.066637225 0.10325589 -0.060727198
0000d0 0b 80 a9 3d 30 16 2e be 46 dc 07 3e c9 4b fc bd
       0.082763754 -0.17000651 0.13267621 -0.12319142
0000e0 2e 5d 16 3e ae 07 4e 3c 54 17 fa 3d c4 2a 25 3e
       0.14683983 0.012575073 0.12211481 0.16129595
0000f0 36 52 84 3e 9b e7 ee 3d 34 af 85 3b ba 01 f0 bd
       0.25843972 0.11665269 0.0040797237 -0.11719079
000100 3a 63 ff bd b9 60 21 3d 14 dd 79 bd f3 f0 cc bd
       -0.12470098 0.039398883 -0.061001852 -0.10006895
000110 8e 4e 82 3d ac bc 19 3e b4 78 cf bd b2 f6 6e 3d
       0.06362639 0.15013379 -0.10130444 0.058340736
000120 33 40 84 3d c0 79 14 3e a9 99 b0 bd 0f ce cb ba
       0.064575575 0.14499569 -0.08623058 -0.0015549081
000130 28 34 b5 3d 55 79 f0 3d 39 f2 e5 3d ac a0 42 3d
       0.08847839 0.11741892 0.11227841 0.04751651
000140 09 13 8e bc 19 8d 93 3d eb 82 41 bc 43 86 ec bd
       -0.017343061 0.072046466 -0.011810998 -0.11549046
000150 a8 96 c8 bc 3a c7 af 3d 11 70 18 3e 8e cd 81 bd
       -0.024485901 0.08582921 0.148865 -0.063380346
000160 72 02 3d be 32 b7 83 3c b8 e6 ab 3d 7a f9 78 bc
       -0.18457964 0.016078565 0.083936155 -0.015196199
000170 0d 45 83 3d 64 be 9d 3c 90 2b 73 bd c0 62 e9 3d
       0.06409655 0.019255824 -0.059367716 0.11395788
000180 7c b5 75 3d 8e ea 84 bd b7 de 21 bc dc 68 23 3e
       0.05998753 -0.0649005 -0.0098797595 0.1595797
000190 e5 e9 b3 3d da b2 8b 3d 01 77 d0 bc c6 28 3b 3c
       0.08784846 0.068212226 -0.02544737 0.011423295
0001a0 87 89 ce 3c 6a 72 96 3d 80 96 1f bd 26 97 e2 3d
       0.025212063 0.073460415 -0.038961887 0.110639855
0001b0 67 a5 c0 bd 49 77 b6 bd 80 d2 2e bb 9e d9 2c 3e
       -0.09406548 -0.089094706 -0.002667576 0.1687989
0001c0 73 1b 9d 3b bf 60 28 3e 7d be b3 bc a3 3f fd 3d
       0.004794532 0.16443156 -0.021941418 0.12365653
0001d0 48 7b 86 bc ad 6c c9 3d a7 70 d4 3c 49 9d fa 3d
       -0.016416207 0.098351814 0.025932623 0.12237031
0001e0 63 90 fc bd bc 62 f2 3d 40 32 e1 3d 11 e8 c6 bd
       -0.12332227 0.11835238 0.109959126 -0.09712232
0001f0 88 d6 0e 3e 2e 99 c0 bd d2 ca 43 3c 1e c2 2d 3e
       0.13949025 -0.09404217 0.011950212 0.16968581
000200 e2 40 6d bd 6d 06 93 bd cb 75 75 3d 9b 6e 0f 3e
       -0.057923205 -0.0717896 0.05992679 0.14007036
000210 5b 9a 64 3d 63 3a 04 3d 18 63 16 3e 8b 3f fd 3b
       0.055811267 0.032282244 0.14686239 0.007728522
000220 42 9b 2e bd 08 58 2e 3b 58 36 6e 3d 95 1b 43 3d
       -0.042628534 0.0026602764 0.058157295 0.047633726
000230 c4 5a 82 bc 77 f8 aa 3d 9e 52 91 bb 43 09 bd bd
       -0.015912421 0.08348172 -0.0044348976 -0.09230282
000240 d1 b6 b2 bd 0b 4e 00 3c d3 0a 93 3d 1c fe 59 3d
       -0.08726276 0.007831107 0.07179799 0.053220853
000250 da f5 d1 3d fb a6 24 bd 34 06 51 bd 87 45 f6 3d
       0.102519706 -0.040198307 -0.051031306 0.1202498
000260 98 b2 7f 3d ff 3b ab 3d 55 eb 33 3e 3f 51 8a 3d
       0.06242618 0.08361053 0.17570241 0.06753778
000270 97 c5 c8 bd fd 39 3f 3e 6e a9 90 3d 5b bc a5 3c
       -0.09803312 0.18674465 0.07063566 0.020231416
000280 b4 3e 01 3e fb 14 97 bc 17 20 0e 3e 7b 39 f1 3c
       0.12621576 -0.018442621 0.13879429 0.029446354
000290 b3 5f 17 3d af da 82 3d 05 f6 8f bd 33 64 1d 3e
       0.0369565 0.06389367 -0.070293464 0.15370254
0002a0 5d 53 9e 3d fc 3d ac 3d da 2a f7 bd 27 c9 34 3d
       0.07730744 0.0841026 -0.1206872 0.044137146
0002b0 53 a5 9f bd 70 bd 5a bd cc 3a 99 bd 1e 97 a4 bd
       -0.07795205 -0.053403318 -0.07481918 -0.08036636
0002c0 1f 75 02 3e b0 7b 12 3d b2 02 11 bd 18 95 5c 3e
       0.1273999 0.03576249 -0.03540296 0.2154125
0002d0 69 48 13 3e f9 53 69 3d 56 2e 1a bd 81 2a 6b 3c
       0.14383091 0.05696485 -0.037641846 0.014353395
0002e0 34 e8 cc bd 14 eb 4b 3b 84 fc 30 bc dd ec e0 bd
       -0.10005227 0.003111546 -0.010802392 -0.10982678
0002f0 6d f5 c6 bd 22 6f 1a bd ba d1 cf bb 61 e2 95 3d
       -0.0971478 -0.03770364 -0.00634214 0.07318569
000300 2f 94 74 3d 56 b1 b2 bd cb e6 aa 3d df 0b 6e 3e
       0.05971163 -0.087252304 0.083448015 0.23246716
000310 e3 92 64 3d 13 25 cc bc 67 f3 0e bd dd 4d 20 bd
       0.055804145 -0.024920022 -0.034900095 -0.039136756
000320 9b fe be bc a4 8f 55 bd 9e 62 3f 3d 4b a7 12 3d
       -0.023314765 -0.05213894 0.046724908 0.035804074
000330 31 4c b0 3d 78 bb e4 bb e1 30 fd 3d 66 de c4 3d
       0.08608282 -0.006980356 0.123628385 0.09612732
000340 87 63 2b bd fb f7 16 3b 14 b0 16 3d bd f2 89 3b
       -0.041842964 0.0023035991 0.036789015 0.004209845
000350 87 ee d2 3c 4b 78 a2 3d f3 cc 30 be f1 f7 03 bc
       0.025748504 0.079331 -0.17265682 -0.008054719
000360 d6 fa 11 3e 9e b6 1d be 8a 54 0b bd 65 f2 d1 3d
       0.14255843 -0.15401694 -0.03401617 0.10251311
000370 2e 00 36 3d bf e0 87 3d 40 db b1 3c bb 6a b6 bb
       0.044433765 0.06634664 0.021710992 -0.0055669225
000380 18 6a b8 3d da 2f 11 3e c0 f2 0f 3d f4 98 dd 3d
       0.09004611 0.1417841 0.035143614 0.10820189
000390 09 07 ca bd 75 be 94 bd 46 60 c3 3c e8 73 99 bd
       -0.09864623 -0.07262889 0.023849618 -0.074928105
0003a0 6d 5b b3 3d 15 f7 cd bc 78 70 cd 3c d1 39 23 be
       0.087576725 -0.025142232 0.025078043 -0.15940024
0003b0 16 a3 0d 3e 7b 64 63 3d e7 4e 08 3d 7a af a3 bc
       0.13831744 0.055515748 0.033278372 -0.019981135
0003c0 8b 25 84 bd 1c 80 be 3c 9f dd d7 3d 9d 59 01 be
       -0.06452473 0.023254447 0.10540318 -0.12631841
0003d0 86 e8 cf 3d 30 89 08 bd b6 49 bc bd a8 1a e8 3b
       0.10151772 -0.033333957 -0.09193747 0.007083256
0003e0 fd 5d d4 3d a5 2a a0 bb c5 b8 4f bc 9b 74 72 3d
       0.10369489 -0.004887896 -0.01267833 0.059193235
0003f0 d0 ca 0d bd 46 60 3a 3d f6 38 2d bd 7d 82 2b bd
       -0.034617245 0.04550197 -0.04229065 -0.04187249

mlp.4.bias f4 [64]
000000 33 f8 6d b9 1f a1 ac bc 80 67 25 3d 25 44 0d 3d
       -0.00022694543 -0.021072922 0.04038191 0.034488816
000010 8a ea d8 bc 3b b4 0f 3c da 7e 89 bd 79 f2 11 3e
       -0.026479024 0.008770998 -0.06713648 0.14252652
000020 08 24 db 3c c2 bd dc 3d 05 f9 08 3d fb 90 8c bc
       0.02675058 0.10778381 0.03344061 -0.017158976
000030 c7 d9 ed 3d 3e b6 4e 3c 8c b6 7f 3d 57 92 06 bd
       0.11613803 0.012616692 0.06242995 -0.032854404
000040 bd 3e 3f bd 50 39 fb 3d f6 f9 9b 3c ba 2a 8d bc
       -0.04669069 0.12266791 0.01904009 -0.017232288
000050 7d 6c ee bd 37 b1 29 bd 22 ab 1c bd b7 1a fb ba
       -0.11641786 -0.04142877 -0.038249142 -0.0019157742
000060 8e 9f a7 3c b4 c0 b8 3c 90 af c7 3c f3 78 98 3d
       0.020461824 0.022552826 0.024375707 0.07444944
000070 cf 98 1f bd ea 83 1a bd 45 5b e0 3d 07 f2 6e 3b
       -0.03896409 -0.03772346 0.10954908 0.0036460178
000080 fc 5a 5f 3c 50 63 cf 3d 64 ad 2f 3d e3 33 41 3b
       0.013632532 0.10126364 0.042889968 0.002948039
000090 ab d5 bf 3d b0 a3 86 3d 0f 9d 0c 3e f0 0f f2 3c
       0.09366926 0.0657419 0.13731788 0.029548615
0000a0 3d 68 38 bd 30 21 7e 3d 58 72 18 3e 5b f1 1f 3e
       -0.045021284 0.06204337 0.14887369 0.15619414
0000b0 3a bf 80 3b 3f e2 24 3e 9a 38 89 3d c3 d3 b7 3c
       0.003929046 0.16101931 0.06700249 0.022439843
0000c0 57 54 f0 3d 82 a1 2e bd ff eb 9a bd d9 c5 1f bd
       0.117348365 -0.042634495 -0.07564544 -0.03900704
0000d0 03 06 b6 3d 12 cc b3 3d da b4 57 bd f3 d2 0b bd
       0.088878654 0.08779158 -0.052662708 -0.034136724
0000e0 77 e8 3a 3d 21 90 09 3e 39 fe c0 3c ab 35 d5 3d
       0.045631852 0.13433887 0.023558723 0.10410627
0000f0 d7 d0 4d bb d1 d3 0c 3e 72 47 42 3d 1a 0e 17 3d
       -0.0031404996 0.13752677 0.047431417 0.036878683

mlp.7.weight f4 [3, 64]
000000 c2 53 98 ba 31 e5 10 3e 27 9c 80 bd e7 58 d5 3d
       -0.0011621641 0.1414993 -0.06279784 0.104173474
000010 28 6d 82 3e 38 75 f1 bd 8d 70 b1 bd 40 26 bc 3d
       0.25473905 -0.11789936 -0.086640455 0.09186983
000020 87 98 32 3e 36 6e 04 3e b9 a3 9d 3d ee 6a 31 3e
       0.17440997 0.12932667 0.07697243 0.17325947
000030 9c 0b 14 3e 1c 4a 4b 3e b1 78 31 be d6 25 d7 3d
       0.14457554 0.19852489 -0.17331196 0.105052635
000040 0b d4 a2 bd d7 63 86 3c fb 9e 24 3e 6a a5 e8 bd
       -0.079506 0.01640503 0.16076271 -0.11359675
000050 01 44 ba bd a4 04 6e bd 8a 3d bd 3c 0e 09 1f 3e
       -0.09095002 -0.058109894 0.023100633 0.15530798
000060 1a 80 66 be fa a4 23 be 31 79 d1 3d 99 51 20 3e
       -0.22509804 -0.15980902 0.102281936 0.15656127
000070 e1 af 17 3e 2a 66 52 3e f8 82 f0 3d 95 e3 d4 3d
       0.14813186 0.20546785 0.1174373 0.1039497
000080 36 81 0a 3e 19 7f d1 3b b3 2d 22 be c1 cb 71 be
       0.13525853 0.006393325 -0.15837745 -0.23612882
000090 2c e4 b9 bc 43 da 05 3e 78 10 70 be 0e f0 2f be
       -0.022691809 0.13071541 -0.23443782 -0.17181417
0000a0 cb 52 45 be 38 c4 ec 3d d7 31 f5 3d ba e6 ff 3d
       -0.19269864 0.11560863 0.11972397 0.124951795
0000b0 99 f3 83 bc ce bf 8b 3d 01 c8 b5 bb e1 d8 31 3e
       -0.016107367 0.06823693 -0.005547524 0.17367889
0000c0 90 1d db 3d 09 13 0c be 41 27 56 be 87 e0 2a be
       0.10698998 -0.13679136 -0.20913412 -0.16687213
0000d0 2b e5 f3 bd 40 d7 81 be 83 8d ef bd f0 f5 e5 bd
       -0.11908945 -0.25359535 -0.11696913 -0.112285495
0000e0 d5 ec 88 bd 9d 5d ce 3d e5 49 30 be e1 4a 4e be
       -0.06685797 0.10076449 -0.17215689 -0.20145752
0000f0 c7 0d 40 be 0c 32 ac 3c c9 4f cb 3b b5 34 ae bd
       -0.18755256 0.021019958 0.0062045795 -0.08506147
000100 23 ac 8b be 10 3e cf 3d 62 a9 87 bd ee 62 06 be
       -0.27279767 0.10119259 -0.06624104 -0.13123676
000110 e5 91 98 bd f4 f1 18 be bc 12 34 3e 24 08 70 be
       -0.07449702 -0.14936048 0.17585272 -0.23440605
000120 c9 98 2c be dd be 8b be ef b3 78 be f8 7b 37 be
       -0.16855158 -0.27294055 -0.24287389 -0.17918384
000130 9f 9c 1e be b4 91 b0 bd af 0a 68 be c5 d6 e5 3d
       -0.15489434 -0.08621541 -0.22660325 0.11222605
000140 bc c2 8e be ba 97 9d be ea c6 30 be 07 8c 30 be
       -0.27882946 -0.3077982 -0.1726338 -0.17240916
000150 ca df f2 bd aa c5 4d be ca e2 c3 3d 87 26 94 3d
       -0.118590906 -0.20094934 0.09564741 0.07233911
000160 56 ca 9b 3d c1 ca 21 3e 10 18 1f be 5c e5 22 3e
       0.07606952 0.158 -0.15536523 0.15907806
000170 db 7f 8b bd 91 9a 22 3e 0f b0 3d be 76 5e 47 3e
       -0.06811496 0.15879275 -0.18524192 0.19469628
000180 f9 da 34 3e bc ed f3 bd 42 79 d0 3d 5e 73 78 be
       0.17661656 -0.119105786 0.10179378 -0.24262759
000190 46 5e b4 be 53 b2 65 be 84 9c 26 3e 1c 3f c5 3d
       -0.35228175 -0.22431307 0.16270643 0.09631178
0001a0 0e fa c9 3d 42 f4 c0 bd c4 76 82 be 75 02 18 be
       0.09862147 -0.094215885 -0.25481236 -0.14844687
0001b0 7b 63 4c be a9 ea 8c be 1f 5b 97 3d c8 64 40 be
       -0.19959824 -0.27522781 0.07390427 -0.18788445
0001c0 eb af 22 be 25 23 d9 bd 67 eb 1e 3e 7f 86 f2 3d
       -0.1588742 -0.106024064 0.15519486 0.11842059
0001d0 f9 ef 46 3e 05 27 36 3e c9 77 6c 3e f9 df 21 be
       0.1942748 0.17788322 0.2309257 -0.15808095
0001e0 20 8d 72 be 30 64 65 be 26 67 00 3e 7e 19 05 3e
       -0.23686647 -0.224015 0.12539348 0.12998006
0001f0 b8 29 00 3e 47 9b 82 be a2 45 2f 3e e3 69 f4 bd
       0.12515914 -0.25509092 0.17116407 -0.11934259
000200 7a 2c 9f 3d 92 14 6d be 1c 63 42 3e cc 5d cd 3d
       0.07772155 -0.23152378 0.1898312 0.10027656
000210 a6 1e 2c be fe 41 1c 3e b6 51 d3 bd be 26 a3 3d
       -0.16808566 0.15259549 -0.103183195 0.07966374
000220 bf 5a 3f be 31 9a 0f 3e b5 bc 49 bd 11 18 4d be
       -0.1868696 0.14023663 -0.04925223 -0.20028712
000230 b9 07 52 be e9 35 2f be 00 ed 12 3e 98 99 bb bc
       -0.20510758 -0.17110409 0.14348221 -0.022900388
000240 14 f2 83 3e 1a 59 df 3c 0a 02 10 be 88 1a 02 3e
       0.25770628 0.027264167 -0.14063278 0.12705433
000250 00 90 05 3d 1b ed 2d 3e 36 d7 8f be 96 79 80 be
       0.032608032 0.1698498 -0.2809388 -0.25092763
000260 08 42 e7 bb f8 58 ed bd a3 fc 14 be 3f 65 33 be
       -0.007057432 -0.11589235 -0.14549498 -0.17519091
000270 76 9e 6e bd f4 58 f7 bd 50 db 08 bc a5 66 87 be
       -0.05825659 -0.12077513 -0.008353069 -0.264455
000280 6c e8 37 be 63 79 52 be 75 24 d0 3d d6 52 0e 3e
       -0.17959756 -0.20554118 0.101632036 0.13898787
000290 78 fa b4 bc 6f 46 35 3d 54 e5 58 bd 75 8b 7c 3d
       -0.022092089 0.044256624 -0.05295308 0.061656434
0002a0 7a 46 09 3e 7d 07 40 be 2a 82 15 3e f1 8e 20 3e
       0.13405791 -0.18752857 0.14600435 0.15679528
0002b0 62 9c cc 3d df 0a 7c 3d 74 d2 75 be 9d b6 81 bd
       0.09990765 0.061533805 -0.24006063 -0.06333659
0002c0 7e 9c 20 be 3c 56 15 3e 57 36 2e 3e 7a 2b 42 3e
       -0.15684697 0.14583677 0.17012917 0.18961897
0002d0 3b c1 ce bd b1 69 3c 3e dd 2f 2c be a9 f5 59 3e
       -0.100954495 0.18399693 -0.16815133 0.21285118
0002e0 61 2c e0 3d 74 ea b7 3d 4a 5b 35 3e 0c bd 27 3e
       0.109459646 0.08980265 0.17710605 0.1638071
0002f0 2b a3 9c 3d 3f 31 f0 3c ed e8 3b be 7a 6a 1b 3e
       0.07648309 0.029320357 -0.18350573 0.15177336

mlp.7.bias f4 [3]
000000 b0 7e a4 bd 9a a0 89 3d e9 67 02 3d
       -0.08031976 0.067200854 0.031837378

exp_avg f4 [21]
000000 d9 d2 af 37 af 20 97 3a cd 50 8d 3a 6a 1d 86 39
       2.095981e-05 0.0011530126 0.0010781527 0.00025580387
000010 e8 7b ca b9 eb f1 91 b9 e7 2d 32 39 98 b0 ba ba
       -0.0003862076 -0.00027836798 0.00016992503 -0.0014243303
000020 3d 20 23 3b ca a4 ff 39 9e d4 d0 3a ab 95 12 ba
       0.0024891042 0.00048760168 0.0015932505 -0.000559176
000030 fd 8f 8c 3a 5f 3c db b9 ef 7a 0b ba 86 0c 82 ba
       0.0010724064 -0.00041815915 -0.0005320748 -0.0009921945
000040 b3 64 7a bb 27 59 76 bb 24 bf e2 b9 ec f7 7a bb
       -0.0038206994 -0.003758976 -0.0004324849 -0.0038294746
000050 3d 6e 84 3b
       0.0040414617

exp_avg_sq f4 [21]
000000 79 e0 d9 37 d5 8e c0 37 bb 74 79 37 f9 57 dd 39
       2.5972944e-05 2.2954695e-05 1.4868735e-05 0.0004221795
000010 42 34 17 39 18 e6 5b 39 4f c0 b9 38 60 2c f3 38
       0.0001441995 0.00020971184 8.857308e-05 0.000115954084
000020 2f ad ce 3a 60 a6 7c 3a aa f7 99 39 fd 25 5c 38
       0.0015768165 0.0009637829 0.00029366958 5.2487467e-05
000030 0e 6e ac 39 62 eb 07 39 c0 87 e5 38 e9 75 0e 39
       0.00032888394 0.0001296229 0.00010944856 0.000135861
000040 c5 83 d2 39 be e3 36 39 9a a9 37 38 ec 0a 5c 38
       0.00040152497 0.00017441713 4.3788554e-05 5.246226e-05
000050 39 7a 59 3a
       0.00082961057

exp_avg f4 [21]
000000 04 e9 85 ba 51 81 08 bb 98 89 1f bb b3 e7 9a 3a
       -0.0010216539 -0.0020829032 -0.0024343487 0.0011818319
000010 21 11 b1 b9 3e a5 a2 3a ab 2d ae 39 39 ab fd ba
       -0.00033772833 0.0012408865 0.00033221891 -0.0019353396
000020 3d c2 0a bb 4f 75 57 3a f9 a9 03 ba 7f 31 7b 39
       -0.0021172904 0.00082190795 -0.00050225813 0.00023955664
000030 bf 01 2a ba 5f 36 7b 3a da 62 88 3a b8 1a 4e 3a
       -0.00064852455 0.0009582992 0.0010405437 0.0007862258
000040 04 5b 27 39 5d 65 be b9 53 ea 61 b7 0f c0 26 3b
       0.00015960267 -0.00036315146 -1.3465603e-05 0.0025444066
000050 f5 54 0d 38
       3.3696142e-05

exp_avg_sq f4 [21]
000000 aa bd 24 39 38 8c 50 38 d7 16 11 38 0b f6 9e 39
       0.00015710914 4.9721653e-05 3.4591965e-05 0.00030319425
000010 42 1b 1c 39 3c 0f f4 38 74 23 7a 38 fa fc 19 39
       0.00014887474 0.00011637664 5.9637663e-05 0.00014685458
000020 45 09 11 3b 39 da 52 3a 6b 23 be 39 ca 5d ee 37
       0.002213077 0.0008043382 0.00036266012 2.8415485e-05
000030 dc d2 61 39 ad 74 0c 39 05 fd 98 39 ee a9 8c 39
       0.00021536223 0.00013394906 0.00029180213 0.00026829488
000040 ca e4 bd 39 f0 e7 34 39 6a ae a0 38 b8 1e ea 38
       0.0003621935 0.00017252541 7.661882e-05 0.00011163711
000050 bc 22 2b 3a
       0.0006528308

exp_avg f4 [128, 21]
000000 ba 70 13 b9 9c 7c 3d ba 0f a8 38 ba 03 c2 11 3a
       -0.00014061006 -0.0007228346 -0.00070440857 0.0005560221
000010 31 a9 22 3a b9 c4 d8 3a c2 6a 79 3a 3a 50 21 3a
       0.0006205021 0.001653812 0.00095145043 0.0006153617
000020 2f e1 56 ba ac 85 23 39 a4 22 21 3a 4d 6e 78 ba
       -0.0008197007 0.00015594688 0.00061468245 -0.00094768853
000030 9c 27 83 ba 92 41 6b ba a4 cd 3f b9 58 da f1 39
       -0.0010006311 -0.00089743093 -0.00018291787 0.0004612978
000040 1c 82 3f 3a a7 a1 bd b8 df 21 d8 b9 51 22 0e ba
       0.00073054596 -9.0423324e-05 -0.00041223966 -0.00054219837
000050 f0 20 67 b9 2c 14 a1 b8 2d f4 c1 b9 8f 8f bd b9
       -0.00022042147 -7.6808356e-05 -0.00036993754 -0.0003615585
000060 18 e4 65 39 d7 f2 9c 39 87 d2 39 3a 5f 34 f6 39
       0.00021924113 0.00029935568 0.0007088561 0.00046959796
000070 04 13 a4 39 ac 05 19 ba cc 1a d2 39 c5 fe 97 39
       0.00031294685 -0.0005837332 0.00040074287 0.00028990782
000080 33 30 1c ba 44 3e 23 ba 88 0e 03 ba c2 50 d7 b8
       -0.000595811 -0.0006227235 -0.0004999419 -0.00010267041
000090 79 a8 94 39 b1 f9 df 39 82 f0 77 38 71 30 d8 b8
       0.00028354282 0.0004271991 5.911338e-05 -0.000103087055
0000a0 15 20 3b b9 f1 7d ee b8 4e 08 e2 b8 70 9b c5 38
       -0.00017845661 -0.00011372183 -0.00010778067 9.4226445e-05
0000b0 81 52 b5 38 c8 d6 d3 b9 49 b1 b0 b9 4c 19 1d ba
       8.64612e-05 -0.0004040508 -0.00033701424 -0.0005992844
0000c0 0a fe 93 b9 09 78 e6 b9 f2 86 5e b7 5d 1d cf 38
       -0.000282273 -0.00043958452 -1.32636505e-05 9.8759985e-05
0000d0 fb 94 70 39 07 13 6e b7 c3 4e 2e b9 31 2a 9e b9
       0.00022943683 -1.4190336e-05 -0.00016623274 -0.00030167543
0000e0 55 2d a1 b9 00 f3 74 38 34 ce 35 3a 7b 16 66 3a
       -0.00030742088 5.8400445e-05 0.0006935329 0.00087771536
0000f0 27 75 32 3a 52 e3 b8 39 73 fb 04 b9 4d d5 80 b6
       0.0006807618 0.00035264582 -0.00012682173 -3.8395287e-06
000100 c0 c1 cd 36 81 8c c8 36 24 32 77 33 3b 1e 43 b6
       6.1320316e-06 5.9768213e-06 5.755477e-08 -2.907486e-06
000110 9f 2c 50 b7 59 56 a7 b6 dd 1e e7 b6 00 62 8a b6
       -1.2408155e-05 -4.98704e-06 -6.8879294e-06 -4.124129e-06
000120 45 88 df 37 a5 45 f5 37 d5 83 be 36 8c dd b0 b5
       2.6647127e-05 2.9238707e-05 5.6777885e-06 -1.31775e-06
000130 03 f1 6a b6 b7 a2 86 b6 44 5a a7 b6 8f fa 21 b7
       -3.5009004e-06 -4.0124537e-06 -4.987496e-06 -9.6546855e-06
000140 6f fd 2d b7 06 32 07 b7 d8 e3 ca b5 76 cc 32 37
       -1.0370611e-05 -8.058274e-06 -1.5116484e-06 1.06572315e-05
000150 27 62 6e b7 28 45 c3 36 61 61 bf 36 8b cd 96 37
       -1.4208758e-05 5.8195037e-06 5.70358e-06 1.7977107e-05
000160 ee e1 77 37 21 fd ef b5 f8 68 21 37 80 d7 d9 36
       1.4774951e-05 -1.7880558e-06 9.620788e-06 6.4921915e-06
000170 1d 95 98 b5 a0 7d cf 36 0d 1b 2c 37 68 58 68 b5
       -1.136828e-06 6.1837054e-06 1.0258297e-05 -8.6555383e-07
000180 86 3e 25 b6 e1 a3 87 b6 7b 1f a1 b6 79 83 b4 b6
       -2.462331e-06 -4.0423915e-06 -4.8018387e-06 -5.3797235e-06
000190 84 7a 04 b7 40 91 0d b7 e6 a1 15 b7 9c 6a 13 b7
       -7.8963385e-06 -8.438074e-06 -8.918787e-06 -8.786705e-06
0001a0 2d 78 cc b6 8d 63 66 b8 bf 49 f9 37 cb 93 db 37
       -6.093664e-06 -5.4928987e-05 2.9717454e-05 2.6175656e-05
0001b0 9c 60 4b b9 83 05 22 b9 4e e1 8b b9 37 08 09 b9
       -0.00019395578 -0.00015451577 -0.0002668001 -0.00013068398
0001c0 49 d1 50 b9 38 de e1 b6 21 11 50 38 af e3 d5 38
       -0.0001991439 -6.731392e-06 4.9607017e-05 0.00010199041
0001d0 8e d5 84 b7 4e 66 a2 b8 0c 12 0c b9 00 a1 05 b9
       -1.583507e-05 -7.743818e-05 -0.00013358163 -0.00012743846
0001e0 92 43 40 38 3b b8 b1 39 d9 2c d8 39 97 e1 a2 39
       4.5839297e-05 0.00033897333 0.00041232145 0.00031067125
0001f0 00 f5 1b 39 8c ab 94 b8 f6 10 c3 37 8b 3f aa 39
       0.00014873222 -7.089143e-05 2.325371e-05 0.0003247227
000200 fb 3a a5 39 4c 25 ba b9 54 eb c8 b9 1e b2 0c ba
       0.00031515196 -0.00035504473 -0.00038322306 -0.00053671177
000210 32 e6 fe b9 d6 d1 25 b9 6f 08 15 3a 54 42 26 ba
       -0.00048618164 -0.00015813796 0.00056851556 -0.0006342281
000220 c1 34 bc b9 57 0e f4 39 02 41 24 3a 95 a7 01 3a
       -0.0003589746 0.0004654999 0.00062657904 0.0004945931
000230 55 f7 50 39 16 62 4b b9 5d 75 8a b9 04 3f e5 37
       0.00019928564 -0.00019396128 -0.00026408854 2.7328271e-05
000240 42 23 45 39 e5 d2 3d 39 79 4e 4a 38 b5 0b 9a b8
       0.00018800519 0.00018103009 4.8233636e-05 -7.345473e-05
000250 8a 05 17 b6 01 5b f5 b5 88 a8 2f b9 a6 74 05 b9
       -2.2503978e-06 -1.8280408e-06 -0.00016752083 -0.00012727323
000260 9d 28 22 b9 b1 ee 42 b8 1e 00 da b8 81 1c a7 b8
       -0.00015464654 -4.6475503e-05 -0.00010395072 -7.96849e-05
000270 e5 34 14 39 d9 49 0a 3a 20 dd b9 b7 52 46 dd b8
       0.00014134085 0.00052752864 -2.2156688e-05 -0.000105511994
000280 76 9a 84 b9 22 fe a9 b8 8e 03 d2 38 0b 36 ec 39
       -0.00025292084 -8.105884e-05 0.000100142424 0.00045053693
000290 ef 45 57 39 16 9a 11 38 c8 4c 30 b9 0f 71 99 b8
       0.0002053005 3.4714198e-05 -0.00016813271 -7.316667e-05
0002a0 2c a5 cf 38 03 dc 89 b9 27 a1 83 b9 b4 d0 1a 3a
       9.901295e-05 -0.00026294598 -0.00025106335 0.0005905733
0002b0 47 c3 0a 3a 5f 6e 1d 3a 5c 7b 37 3a d2 13 55 b9
       0.0005293381 0.0006005521 0.0006999278 -0.00020320647
0002c0 17 65 e8 b9 a0 02 a6 39 21 16 91 39 c9 9e 20 ba
       -0.00044325806 0.00031663943 0.00027673042 -0.00061271765
0002d0 14 d3 3a ba 00 e4 1d ba 97 ea 83 b9 58 b3 db 39
       -0.000712679 -0.00060230494 -0.0002516105 0.00041904557
0002e0 35 9f 6c 3a 85 a1 16 3a 55 3e 97 b8 02 3b 4f ba
       0.0009026409 0.0005746114 -7.211851e-05 -0.0007905216
0002f0 d7 01 82 ba 68 a9 81 36 12 c2 39 b5 a0 95 24 b5
       -0.0009918761 3.864221e-06 -6.920028e-07 -6.1312494e-07
000300 9c 20 71 37 3e fa 29 37 66 8b 8c b5 71 e0 04 37
       1.4372312e-05 1.0131449e-05 -1.0471383e-06 7.92007e-06
000310 21 38 4f b6 c6 f4 7b b6 e6 2b b0 37 0d 39 1f b7
       -3.0878075e-06 -3.7544391e-06 2.1001277e-05 -9.490422e-06
000320 c2 c9 a2 36 51 5b 4c b6 67 40 31 36 46 85 76 b6
       4.851464e-06 -3.0451522e-06 2.6412542e-06 -3.6734432e-06
000330 8a c2 58 b6 b3 69 81 b7 29 3c 16 b7 02 fc 0b b7
       -3.2299745e-06 -1.5427218e-05 -8.954704e-06 -8.343721e-06
000340 0b 6f 00 b5 f5 31 c8 b5 6b f6 31 b7 eb f4 73 36
       -4.7845305e-07 -1.4915701e-06 -1.0607396e-05 3.6352383e-06
000350 db e5 6d 36 80 05 52 37 c1 4b 2d 37 cf 7c 74 b5
       3.5449546e-06 1.2518256e-05 1.0329241e-05 -9.1078704e-07
000360 a7 49 e4 36 63 53 8d 36 2d 3a aa b5 1d 7e 94 36
       6.8035038e-06 4.211835e-06 -1.2682918e-06 4.4254252e-06
000370 47 70 e6 36 9e 50 6e b5 36 97 f8 b5 d5 89 45 b6
       6.867605e-06 -8.877922e-07 -1.8521448e-06 -2.9435516e-06
000380 a1 87 67 b6 35 ee 75 b6 3a 6f a8 b6 49 b9 ac b6
       -3.4500629e-06 -3.66465e-06 -5.0197386e-06 -5.1475695e-06
000390 d7 00 b8 b6 66 da ba b6 e3 0f 8c b6 a8 77 35 38
       -5.483725e-06 -5.568657e-06 -4.1741746e-06 4.32652e-05
0003a0 8e e3 28 b9 43 cf 28 b9 81 95 4b b9 5a 68 82 38
       -0.00016106499 -0.0001609894 -0.00019415283 6.21832e-05
0003b0 c0 8f a6 39 42 4d a1 b6 00 3b 25 3a 51 56 00 b9
       0.0003176909 -4.807168e-06 0.0006303042 -0.00012239187
0003c0 f7 ed ba b8 35 9a 1a b9 31 7f 27 38 4a 6e 98 38
       -8.9134955e-05 -0.00014744031 3.993436e-05 7.268468e-05
0003d0 a6 cb db 38 5a 86 03 38 66 a2 9a b9 57 ee 37 ba
       0.00010480666 3.135796e-05 -0.00029494165 -0.00070164114
0003e0 be 6e 12 ba e9 f2 ab b8 73 c0 08 3a 6b 39 2a 3a
       -0.000558596 -8.199161e-05 0.00052166654 0.00064935413
0003f0 fd 6a 24 b9 ea 15 39 3a 4d 4d 2f 3a 61 94 e4 ba
       -0.00015680115 0.00070604554 0.0006687239 -0.001743924

exp_avg_sq f4 [128, 21]
000000 ab 8a 12 37 0d 1b 70 37 17 5d 74 37 dc aa 59 38
       8.734564e-06 1.4311413e-05 1.45652075e-05 5.1895957e-05
000010 a0 5a 06 38 57 a9 52 38 95 0d 26 38 3a 70 a0 37
       3.203249e-05 5.022561e-05 3.9590133e-05 1.9125746e-05
000020 6d cb 1a 38 a8 1b 4b 38 21 ac 0c 38 6c 9c 5f 38
       3.6905916e-05 4.842473e-05 3.353891e-05 5.3313022e-05
000030 5f 27 49 38 02 33 fa 37 7a f2 8b 37 69 68 64 37
       4.79588e-05 2.9826075e-05 1.6683003e-05 1.3614169e-05
000040 8b d9 10 38 e2 17 fa 37 a2 3e 9d 37 ce b3 b4 37
       3.4534878e-05 2.9813444e-05 1.8745024e-05 2.15414e-05
000050 d3 68 3f 38 67 c1 4b 35 da 7e 42 35 14 40 42 35
       4.5635574e-05 7.590483e-07 7.2455225e-07 7.236388e-07
000060 77 67 20 36 71 37 fd 35 34 21 2b 36 86 ba 09 36
       2.3902082e-06 1.8866104e-06 2.5500312e-06 2.0523162e-06
000070 a7 ba 95 35 36 f2 df 35 52 5f 1d 36 42 fb e0 35
       1.1155688e-06 1.6685287e-06 2.3450307e-06 1.6762426e-06
000080 ea 51 2f 36 77 50 1e 36 b9 e2 d6 35 71 0e 8e 35
       2.6124712e-06 2.3590671e-06 1.6010227e-06 1.0584027e-06
000090 b0 0d 3a 35 e6 cb d4 35 ad dd d3 35 7c db 8d 35
       6.931032e-07 1.5854573e-06 1.5785241e-06 1.0569197e-06
0000a0 db dd 12 35 91 ac f5 35 9e 8b 2d 35 d1 a8 0e 35
       5.471208e-07 1.8304146e-06 6.465069e-07 5.314478e-07
0000b0 65 48 11 35 75 a9 ed 35 c9 f8 ad 35 8c 24 77 35
       5.412206e-07 1.7707195e-06 1.296191e-06 9.2067853e-07
0000c0 f2 fb 8c 35 de ab e1 35 c1 86 1f 36 59 b1 f3 36
       1.0504139e-06 1.6813826e-06 2.3771283e-06 7.2626103e-06
0000d0 e9 35 83 36 ff 09 d0 35 b5 bc b8 35 d6 1d 9e 35
       3.91038e-06 1.5500117e-06 1.3763989e-06 1.1780601e-06
0000e0 d7 7b 0c 36 a5 d0 cc 35 64 19 b5 35 da 66 89 36
       2.093371e-06 1.5259908e-06 1.349294e-06 4.0948917e-06
0000f0 c9 6a 5d 36 5b 8c 70 35 4e 21 21 36 eb 6a e7 35
       3.2993723e-06 8.961121e-07 2.4010255e-06 1.7241958e-06
000100 0b 72 1a 34 11 d8 1a 34 c5 a1 06 35 45 02 d2 34
       1.4383856e-07 1.4420972e-07 5.0154296e-07 3.91172e-07
000110 0c 38 04 35 1a 29 aa 34 90 a4 ab 33 5c e5 02 34
       4.925539e-07 3.1694873e-07 7.992742e-08 1.2190634e-07
000120 02 aa 21 35 3f f7 80 35 00 f2 89 34 f1 68 e0 34
       6.022457e-07 9.608701e-07 2.5694317e-07 4.1799606e-07
000130 ba 24 30 35 e5 7f 2e 35 34 c7 83 34 c9 2b 35 34
       6.5618553e-07 6.500616e-07 2.454559e-07 1.6872868e-07
000140 ce e6 8d 34 e5 26 91 34 e2 0e 78 34 1d cc a2 34
       2.643123e-07 2.7036654e-07 2.3102214e-07 3.0323363e-07
000150 a0 30 05 36 5b 7f 84 34 b1 12 86 34 ae a1 8d 35
       1.9846848e-06 2.467958e-07 2.4973045e-07 1.0552374e-06
000160 c7 64 67 35 1e d1 da 34 e5 b3 0a 35 a0 9e ba 34
       8.6200856e-07 4.0757817e-07 5.1670787e-07 3.4760615e-07
000170 27 f1 f8 34 c0 ac df 35 e4 a5 d4 35 45 0b 61 34
       4.636906e-07 1.6665072e-06 1.5843511e-06 2.0958858e-07
000180 10 27 bf 34 84 5b 90 35 6f f7 c7 35 e9 59 2e 35
       3.5604944e-07 1.0755471e-06 1.4898668e-06 6.495089e-07
000190 2a c0 80 34 b4 57 64 34 98 ab a1 34 f8 99 9e 34
       2.3981676e-07 2.1266061e-07 3.0113438e-07 2.954182e-07
0001a0 89 6e 7f 34 79 53 b9 35 fd 00 29 34 48 c0 2c 34
       2.3788938e-07 1.3807868e-06 1.5739711e-07 1.60887e-07
0001b0 28 2f 90 35 37 9e 0d 35 a9 ee 74 35 7c e4 b6 34
       1.074256e-06 5.2756826e-07 9.124438e-07 3.4066386e-07
0001c0 f9 06 06 35 2c 3d a7 34 0b 13 6a 35 bd d5 9b 35
       4.9929037e-07 3.1150682e-07 8.7199504e-07 1.1610606e-06
0001d0 c6 0a db 34 10 da 13 35 a1 e8 81 35 a1 72 bc 35
       4.0799767e-07 5.507909e-07 9.678953e-07 1.4040453e-06
0001e0 c7 41 d7 35 5b 95 cd 35 38 eb 48 35 b9 ea 93 35
       1.6037892e-06 1.5317158e-06 7.4848094e-07 1.1020667e-06
0001f0 2d 01 08 36 99 91 eb 35 9e aa bf 36 24 69 89 36
       2.0266264e-06 1.7551239e-06 5.712106e-06 4.095158e-06
000200 dd f8 8b 36 6d 18 72 37 c9 6d 47 37 f6 ba 92 37
       4.1714943e-06 1.4430011e-05 1.1886886e-05 1.7491617e-05
000210 fc f8 52 37 01 5c 4c 37 64 1d 26 37 0d df 91 37
       1.2574947e-05 1.2180769e-05 9.901214e-06 1.7389213e-05
000220 56 f7 6e 37 f5 ec 7b 37 0c bf 4a 37 39 46 f0 36
       1.4243493e-05 1.5015937e-05 1.208462e-05 7.1607324e-06
000230 15 14 b0 36 be 99 92 36 f0 2f dc 36 0d c3 05 37
       5.2475466e-06 4.369037e-06 6.5620916e-06 7.972832e-06
000240 44 d7 01 37 f2 c5 01 37 6b 19 2f 37 98 1c 50 36
       7.73912e-06 7.735087e-06 1.0436731e-05 3.101106e-06
000250 c0 19 36 36 e4 4c 37 36 54 81 10 37 72 34 d6 36
       2.7135102e-06 2.7313881e-06 8.61318e-06 6.3838024e-06
000260 2c 3f a2 36 6f 3e dd 36 b5 bf 0b 36 9f 4e 40 37
       4.8353304e-06 6.5935815e-06 2.0824202e-06 1.1462397e-05
000270 fa 13 bc 37 b0 48 5c 37 14 7e 13 37 15 aa 1e 37
       2.2420649e-05 1.3129946e-05 8.791238e-06 9.457134e-06
000280 9d 42 bd 36 6f c9 8d 36 7e c2 79 36 23 eb b3 36
       5.6403937e-06 4.2255774e-06 3.72171e-06 5.361989e-06
000290 a7 07 d3 36 9f 8d a2 36 84 a4 72 36 6f 63 e7 36
       6.289181e-06 4.844463e-06 3.615657e-06 6.895912e-06
0002a0 69 00 27 35 30 bc bd 35 91 4f be 35 8a 64 ac 36
       6.2212945e-07 1.4136367e-06 1.417926e-06 5.1377037e-06
0002b0 f2 65 41 36 96 4f 87 36 81 0e 8a 36 5f 59 f6 35
       2.881858e-06 4.0325785e-06 4.114409e-06 1.8354439e-06
0002c0 10 3a 62 36 82 09 9d 36 74 c6 1a 36 8e 69 cd 36
       3.371042e-06 4.6800715e-06 2.3063303e-06 6.1217643e-06
0002d0 13 1c c7 36 41 bd 73 36 51 2b b1 35 de a4 e2 35
       5.9339304e-06 3.6319982e-06 1.3200134e-06 1.6886295e-06
0002e0 62 c3 b1 36 65 fb 43 36 34 7c 98 35 30 4f bc 35
       5.2977566e-06 2.9203595e-06 1.136103e-06 1.4030138e-06
0002f0 37 17 98 36 17 1e 0f 34 d7 f9 27 33 3d 9f 2f 33
       4.5326556e-06 1.332886e-07 3.9109946e-08 4.089019e-08
000300 2e 14 00 34 6b d0 ac 33 95 4d b0 33 61 5f 88 33
       1.192827e-07 8.047285e-08 8.209751e-08 6.350343e-08
000310 9b ea 4e 33 44 2f f9 33 c6 71 47 34 99 cb f2 33
       4.8176485e-08 1.16035636e-07 1.857471e-07 1.1306037e-07
000320 3f 7a 93 33 f8 f9 b9 33 f9 bb 13 34 da 38 32 34
       6.8674574e-08 8.660203e-08 1.3758826e-07 1.6598224e-07
000330 d6 39 c5 33 50 82 a0 33 ad ef 9e 33 a8 5e af 33
       9.184048e-08 7.474284e-08 7.401045e-08 8.1662904e-08
000340 87 d8 a8 33 33 45 a1 33 41 44 c3 35 b1 d3 11 34
       7.862496e-08 7.509734e-08 1.4548497e-06 1.358119e-07
000350 9d 03 13 34 0b a5 a1 34 98 7c 71 34 8e 16 03 35
       1.3691756e-07 3.0108671e-07 2.2490201e-07 4.8834124e-07
000360 e2 b0 63 34 1d bb 96 33 4b 37 43 34 4a af be 34
       2.1205372e-07 7.018955e-08 1.8180906e-07 3.5517797e-07
000370 eb a3 34 35 0d c2 41 34 15 4d 86 34 de 08 da 34
       6.729376e-07 1.8045121e-07 2.501553e-07 4.0612116e-07
000380 ae d5 d8 34 a2 0e 26 34 33 13 0f 34 7a 72 1c 34
       4.0388608e-07 1.5465278e-07 1.3324897e-07 1.4570278e-07
000390 7e f8 0b 34 36 9b 1c 34 b7 e4 6e 34 a2 b1 3b 36
       1.3035785e-07 1.4585098e-07 2.2248683e-07 2.7968567e-06
0003a0 79 21 bf 36 6b 7b bf 36 97 a9 b4 37 d1 db 3a 37
       5.6961403e-06 5.7066113e-06 2.1536644e-05 1.1137644e-05
0003b0 f4 28 91 37 55 4c 8a 37 8f 0b 00 37 23 97 68 37
       1.7304417e-05 1.6486427e-05 7.632086e-06 1.3863467e-05
0003c0 1c 46 a2 37 0d 1e 04 37 57 a1 db 37 df 03 ce 37
       1.9344552e-05 7.87481e-06 2.6181964e-05 2.4558916e-05
0003d0 22 59 56 37 a7 6e 5f 36 a6 40 ed 36 f3 2c ad 37
       1.2776147e-05 3.3293998e-06 7.0706765e-06 2.0644138e-05
0003e0 b0 7f 3f 37 58 06 92 36 19 75 d0 36 cd 36 a2 37
       1.1414217e-05 4.3518776e-06 6.212515e-06 1.9337424e-05
0003f0 2a 4d 59 37 68 49 9b 37 06 df 99 37 f6 41 85 38
       1.2952174e-05 1.8511622e-05 1.8342875e-05 6.3542204e-05

exp_avg f4 [128]
000000 35 7d 4b 3a 77 ce bb 39 da b4 c0 b9 6a 9b 06 b7
       0.0007762493 0.00035821248 -0.0003675584 -8.023208e-06
000010 c5 54 02 b7 9f e1 31 b9 4c ac d7 b9 be fc a8 36
       -7.768341e-06 -0.00016964086 -0.00041136367 5.036213e-06
000020 d8 64 0f 3a 70 78 ac 36 45 5a c1 b6 9e 70 4c 38
       0.0005470044 5.14002e-06 -5.762357e-06 4.8742273e-05
000030 2f b8 d4 ba f1 e4 8f 3a a6 8e 6e b9 cd d0 86 b9
       -0.0016229207 0.0010978264 -0.0002275059 -0.0002571404
000040 a5 74 8c 39 67 39 ee 38 3a f7 2c b9 dd 8b 7e 39
       0.00026789788 0.000113594164 -0.00016495297 0.00024275431
000050 35 0d e8 ba 49 ff 24 37 f7 30 40 b9 48 d7 ec b8
       -0.0017704131 9.8346e-06 -0.00018328788 -0.00011293456
000060 6a 20 47 39 cd 66 14 b8 21 f8 17 b7 ab 7e 98 33
       0.00018990194 -3.538169e-05 -9.058073e-06 7.101092e-08
000070 10 8e 0c 38 6c 8f d6 ba 5f 4d ce b8 97 a8 80 39
       3.3510907e-05 -0.0016369647 -9.837257e-05 0.00024539672
000080 1c 75 9b b7 0f e1 31 3a 7c e7 5c ba 2f 81 a2 b8
       -1.8531973e-05 0.00067855505 -0.0008426828 -7.748824e-05
000090 f1 26 53 37 e3 94 06 ba 98 e9 8c 38 78 fd 20 b9
       1.2585647e-05 -0.000513388 6.7192304e-05 -0.00015353214
0000a0 5c f2 bd b8 45 1c 6c b9 50 ad 3f 39 7d 1f 49 b9
       -9.057365e-05 -0.00022517245 0.00018279743 -0.00019180584
0000b0 a3 d5 37 3a 10 a4 d7 b9 3d da 1c 39 5e 38 0a 39
       0.00070127303 -0.00041130232 0.0001495862 0.00013181704
0000c0 17 2d 33 ba 00 90 9d b9 8b 4e bf 39 cf f9 c5 b8
       -0.0006835027 -0.00030052662 0.00036488878 -9.4402225e-05
0000d0 cf ee 61 37 da 64 12 b7 9b f0 24 ba d4 f9 63 38
       1.3466647e-05 -8.7257595e-06 -0.00062919565 5.4353688e-05
0000e0 85 7d c7 b9 c9 66 d0 37 36 18 0a b9 7d 35 1b bb
       -0.00038049757 2.4843395e-05 -0.00013169725 -0.0023683005
0000f0 1c 64 59 ba 71 c2 35 39 40 58 93 38 97 03 40 ba
       -0.00082928105 0.0001733394 7.025944e-05 -0.00073247537
000100 aa 8d 36 38 f6 0e 61 ba 6c 13 a1 b6 75 40 c9 38
       4.3524116e-05 -0.0008585298 -4.800435e-06 9.596433e-05
000110 d0 5f 83 3a d7 38 3e b9 a0 8b 25 b8 03 ad f8 37
       0.0010023061 -0.00018140987 -3.94691e-05 2.9644469e-05
000120 4c 25 b2 b9 97 3d 11 39 9b a4 b3 b7 c5 af cc 38
       -0.00033978594 0.00013851222 -2.1415113e-05 9.760218e-05
000130 76 30 24 3a 49 bd f4 b6 a0 8b 6b b9 a1 22 1c ba
       0.0006263325 -7.2938024e-06 -0.00022463361 -0.0005956088
000140 a6 41 b0 39 0b cf bd 38 ed 9e 31 38 34 a7 50 35
       0.00033618248 9.050787e-05 4.23481e-05 7.772935e-07
000150 de 0f 11 b8 46 80 7b ba 0d 48 f6 b8 e7 f5 97 36
       -3.458547e-05 -0.00095940044 -0.000117436146 4.5287775e-06
000160 26 e0 e2 b7 e1 0f 00 3a 13 cd 2f 39 51 f8 d1 b7
       -2.7045677e-05 0.00048851786 0.00016765697 -2.5030373e-05
000170 35 a7 78 b9 ef da 3b 39 c4 8c 6b b8 e1 fb 0b 3a
       -0.00023713413 0.00017915269 -5.6159464e-05 0.0005339962
000180 89 e9 d1 38 65 aa 1a ba d0 48 84 b9 dc 5a 8c b9
       0.00010009396 -0.00059000246 -0.00025231251 -0.00026770576
000190 2c e0 80 38 23 f8 95 39 ef 53 42 b9 75 52 1b 3a
       6.145271e-05 0.0002860437 -0.0001853255 0.0005925068
0001a0 15 4c 55 39 a1 ea 3a b9 ba b2 c2 b9 04 a8 98 b9
       0.00020341606 -0.00017825748 -0.00037135725 -0.0002911688
0001b0 aa 1b 4d 36 09 3a ae b7 57 0e ff 38 2a 62 1f 3a
       3.0563483e-06 -2.0769441e-05 0.000121620185 0.0006079996
0001c0 18 35 70 3a fd a7 0f 39 12 03 34 3a e0 e1 2b 39
       0.0009163185 0.00013700123 0.00068669126 0.00016391976
0001d0 7f 71 a2 b9 78 28 fb 39 33 5a f6 38 6d 1a 96 39
       -0.0003098361 0.00047904602 0.00011746995 0.00028629918
0001e0 91 09 11 36 7d 9c c5 38 c5 e8 1e 3a 25 c3 29 b8
       2.1612252e-06 9.42284e-05 0.0006061907 -4.0474482e-05
0001f0 99 4e 14 3a 37 3d a1 b7 1c 66 ae b8 db 6d 16 3a
       0.0005657464 -1.9221201e-05 -8.315986e-05 0.00057384156
